torch_prj/DQN/model/dqn_net(works).pt (torch, 548519 bytes, 6 tensors)

weight f4 [512, 4]
000000 8e d7 42 bc 85 ce d4 3b e8 ed 0c 40 52 a0 e4 3e
       -0.011892213 0.0064943456 2.2020206 0.44653565
000010 d5 2a 44 bd 53 68 da bc 01 77 1e be c6 d8 07 3d
       -0.04789241 -0.026661074 -0.15475084 0.033165716
000020 c8 a5 94 3b b3 fd 38 bc ed 5c 06 40 30 02 40 3e
       0.004536364 -0.011290955 2.0994217 0.18750834
000030 a2 bb cc 3d 26 a9 a3 ba 71 59 2d bf bf d9 93 be
       0.099967256 -0.0012486323 -0.677146 -0.28877065
000040 34 74 6b bc d8 4e be 3c e5 11 ad 3d a5 11 15 3d
       -0.014370967 0.023230955 0.08450679 0.03639378
000050 da d6 92 3e 3a 67 5d 3e 3b aa 3d 3f c3 2c 2e 3e
       0.28679544 0.21621409 0.74087876 0.17009263
000060 0f b7 14 3e bd 03 6b 3e cc 39 2c 3f ea 39 75 3e
       0.14522956 0.22950645 0.6727569 0.23947874
000070 97 bd 6f 3c 97 d7 27 bc 95 0b 0d c0 aa a9 ab be
       0.014632604 -0.010244272 -2.203832 -0.3352788
000080 0b 42 df 3c 93 20 09 b4 b8 25 43 3f 59 8a 2a 3d
       0.027253171 -1.277097e-07 0.7622943 0.041635845
000090 3a fc 5c 3e 6b f5 6a 3e c5 62 3c 3f 0f 58 87 3e
       0.21580592 0.22945182 0.7358821 0.2643437
0000a0 5e 58 5f bc 2a 81 d7 b7 80 bb 79 bd 33 26 76 39
       -0.013631908 -2.5690144e-05 -0.06096983 0.00023474619
0000b0 7e 9c 02 3b 05 e8 0a ba 59 48 02 40 00 7d e9 3d
       0.0019929702 -0.0005298856 2.0356658 0.11400795
0000c0 32 db 46 3c 3e 3c c5 bc f3 73 25 be 59 22 63 bd
       0.012137221 -0.024076577 -0.16157512 -0.05545268
0000d0 83 52 c3 3e 72 2c 5d 3e 51 6f f1 3e 3d 26 0d 3e
       0.3814889 0.21598986 0.4715524 0.13784118
0000e0 51 8f 88 be f2 8f 73 be bd 50 0c bf 57 ba 3f be
       -0.26671842 -0.2378538 -0.54810697 -0.18723427
0000f0 25 32 92 3e 79 a2 02 3e 93 ee 89 3e 1d 5a de 3d
       0.28553882 0.12757291 0.2693983 0.108570315
000100 45 73 39 3d c9 83 56 bd 0f 2a d9 be 55 a1 9f bd
       0.045275945 -0.052371774 -0.424149 -0.077944435
000110 ac 1a 0d bd c3 79 a3 3d 79 a7 9d 3d 07 fc b8 3d
       -0.034449264 0.079822086 0.076979585 0.090324454
000120 5b 66 04 3c d7 71 c1 3b d5 4f a0 3f 2e 5c f1 3d
       0.008081044 0.0059034633 1.2524363 0.1178516
000130 96 9c 60 bd ab 7c ea 3c c9 77 fd 3e 85 17 11 3d
       -0.054836832 0.0286239 0.4950545 0.03542282
000140 38 b1 35 3c b4 b5 8c bb 22 90 19 40 2b b0 80 3e
       0.0110896155 -0.0042941216 2.3994222 0.25134405
000150 bd c0 77 bc a4 96 05 3d d0 d5 76 bc 21 28 35 3d
       -0.015121636 0.032614365 -0.015065625 0.044227723
000160 aa c8 6b be 9e 0a 23 be 0e 59 b2 be 70 97 81 bd
       -0.23025766 -0.15922019 -0.34833568 -0.063277125
000170 15 86 af 3d b8 a2 4c 3e b2 1e c0 3e 05 37 8a 3e
       0.08570496 0.19983947 0.3752342 0.26995102
000180 e5 e8 b3 be c4 e4 73 be 00 4e 29 bf 6f 40 2f be
       -0.35138622 -0.23817736 -0.66134644 -0.17114423
000190 09 7d c4 3a 7f fc 63 bb 1d ee 26 40 38 58 37 3e
       0.0014990877 -0.003478795 2.6082833 0.17904747
0001a0 cf 80 b5 ba b4 ae 68 bb 99 6a 15 c0 67 35 85 be
       -0.0013847592 -0.0035504522 -2.3346312 -0.26017305
0001b0 85 c2 51 bd a2 9b 99 3d 23 83 b0 3e e9 5f d0 3d
       -0.0512109 0.07500388 0.3447505 0.101745434
0001c0 ec 72 d6 3d 5c f8 25 3e bd e5 8a bb eb 0c d9 3d
       0.10471138 0.16208023 -0.0042388127 0.10598167
0001d0 ed ef fc 3d c2 12 fb 3d 33 da f8 3e 54 05 d2 3d
       0.1235045 0.12259437 0.48603973 0.102549225
0001e0 6c 4b 88 be 2e 7b 5a be 41 94 15 bf 48 e4 39 be
       -0.26620042 -0.21336052 -0.5842934 -0.18153489
0001f0 e1 4b 6c 3c 41 98 23 3c ba ff 16 3e 8a c5 44 3d
       0.014422388 0.009985031 0.1474599 0.04803995
000200 fa a8 d9 3b b6 2a 3c bd 66 28 89 3e 4f 40 8d bc
       0.006642458 -0.04593917 0.26788634 -0.017242579
000210 aa 78 b1 be 16 13 90 be ac 24 2f bf 8c 66 59 be
       -0.34662372 -0.2813956 -0.6841533 -0.21230525
000220 53 d5 70 be d4 29 4f be cb 2c 20 bf 6f 59 65 be
       -0.23518877 -0.202308 -0.6256835 -0.22397397
000230 7b 6e 84 bd 2a c4 18 3e c7 83 bf 3f 92 cc 77 3e
       -0.06466385 0.1491858 1.496209 0.24199131
000240 5e 56 d1 3c 3e 77 b8 3c 98 3e 20 bc d7 c2 89 3c
       0.025553878 0.022517797 -0.0097805485 0.01681654
000250 16 bc bf bc 72 25 06 3d 25 f6 79 bd d4 9a e5 3c
       -0.023405116 0.032750554 -0.061025757 0.02802793
000260 4d 48 16 3c 22 1e cf ba 13 ec 0d 40 a2 10 bf 3d
       0.009172511 -0.0015801827 2.2175338 0.09329344
000270 a1 6c 84 3c 42 45 33 bc 1b 86 10 c0 17 2c ab be
       0.01616508 -0.010941805 -2.2581851 -0.33432075
000280 d1 e5 0d bd d6 f0 03 bc 8d 4c ba 3e 27 64 bf bc
       -0.034642998 -0.008053025 0.3638653 -0.023363186
000290 26 ca 63 bc 12 1f fe ba a1 be 3e bf 18 99 c6 bc
       -0.013903176 -0.0019387922 -0.74509627 -0.024242923
0002a0 56 d2 dc 3b 84 3f 28 bc fb 53 03 c0 7a a9 93 be
       0.006738941 -0.01026905 -2.0520008 -0.28840238
0002b0 c6 d7 49 be 3c 52 39 be bd ed 31 bf 1b 6f 25 be
       -0.19711217 -0.18097776 -0.69503385 -0.16155665
0002c0 62 77 a1 3b af 8b 89 3a 98 4e f3 bf 52 fa c5 bd
       0.0049275616 0.00104939 -1.900836 -0.096668854
0002d0 8b 56 ef ba b6 a3 bb 3b 93 11 dd 3f de e0 21 3e
       -0.0018260045 0.005726303 1.7270988 0.15808436
0002e0 f6 74 9a 3d aa f3 d4 3d 34 52 55 3f 80 dc 4e 3e
       0.0754184 0.10398038 0.83328557 0.20201302
0002f0 33 08 dc 3b 31 f3 4a ba 7f 66 f5 bf 0c 76 cb bd
       0.0067148446 -0.0007741927 -1.9171904 -0.09934625
000300 3e b8 a5 bd d8 7b 63 3d d5 06 e6 be b9 5b 2d 3d
       -0.08091782 0.05553803 -0.44927087 0.0423238
000310 f9 e4 58 3d cb 2d 8c bb f0 dc e2 3e 2c eb e4 3c
       0.05295274 -0.00427792 0.44309187 0.02794417
000320 b5 91 2e be f8 0a cc 3d 0d 64 c9 be c3 ad 7d 3d
       -0.1704777 0.099630296 -0.39334145 0.06193329
000330 76 fd f5 3b bf e3 e6 3b 58 b0 0e 40 a2 49 64 3e
       0.0075070215 0.0070461924 2.2295132 0.22293714
000340 c0 0f 6c bd f0 2b b7 3d ca 1f 85 3e 80 d0 df 3b
       -0.057632208 0.08943927 0.26000816 0.006830275
000350 8a 36 af ba 90 3b 9c 3b a3 e5 18 c0 b9 cd 28 be
       -0.0013367694 0.0047678426 -2.389016 -0.16484727
000360 31 80 6b bb b7 c8 ff bb e1 77 21 40 f9 60 89 3e
       -0.0035934562 -0.0078059095 2.5229418 0.26831797
000370 65 19 81 3e 50 d4 66 3e 03 ae 5e 3f ed a4 85 3e
       0.25214687 0.22541928 0.8698427 0.2610239
000380 68 d2 55 3d ad 35 84 3c 0c ab c3 bc 79 30 24 ba
       0.052202612 0.016138876 -0.023885272 -0.00062633265
000390 87 fd a4 3e 28 45 df 3d d3 26 c6 3d 33 b7 7a 3d
       0.32224676 0.109018624 0.09675374 0.06120987
0003a0 84 6f 48 3e 45 bc 3f 3e 78 18 56 3f 56 ce 67 3e
       0.1957379 0.18724163 0.83631086 0.22637305
0003b0 b0 43 57 bd c7 f7 ef bd 89 23 63 be 9c ed c1 bd
       -0.052554786 -0.11717182 -0.22181524 -0.094691485
0003c0 4b 45 1c bc 2d 15 68 3b cb a2 fc bd 36 8b 9a 3b
       -0.009538005 0.0035413012 -0.12335738 0.0047163023
0003d0 00 c8 1a 3e 1b 4a 35 3e b7 9f 96 3f 3a 7a 80 3e
       0.15115356 0.1770405 1.1767491 0.2509325
0003e0 14 2e 25 be d5 ac 46 bb e4 5b 6b 3f ae b0 43 3e
       -0.16130859 -0.0030315418 0.9193709 0.19110367
0003f0 da 08 b9 3c 74 bf 96 bd b2 2a 92 be 40 70 fc bd
       0.022587229 -0.073607355 -0.285482 -0.123260975

bias f4 [512]
000000 3e 17 26 bf 29 8d 33 3c 69 ff d3 be cd 1b df be
       -0.64879215 0.010958948 -0.414058 -0.43575898
000010 0a 3c df bd 70 db 2c bf 25 fc b3 be e0 ee 2f bf
       -0.109001234 -0.67522335 -0.3515331 -0.6872387
000020 5b 6a c2 3d d7 c3 3b bf a1 ff 39 bd db 75 e1 be
       0.09492942 -0.733457 -0.045409802 -0.4403523
000030 c7 5f 11 be bb d9 6e bf 22 cb 3d bf dd a0 30 bf
       -0.14196692 -0.9330098 -0.7413808 -0.6899546
000040 3d a9 4a be b4 1d 6e be d9 66 a2 3e b2 69 87 be
       -0.19791122 -0.23253518 0.31719092 -0.26447827
000050 ba fe 1d bf 54 6b e6 bd 3b 56 28 bf 62 b8 8c be
       -0.61716807 -0.1125094 -0.6575658 -0.27484423
000060 2a a3 64 bf 04 9d 01 bf b2 dd f8 be ec 51 9f be
       -0.8931147 -0.5063021 -0.4860664 -0.3111719
000070 bb 5d 95 be 71 ef 92 be d0 e5 4a bf 1d 45 26 be
       -0.29173073 -0.28698304 -0.79256916 -0.16237302
000080 0b 5c 91 3b d8 e2 67 bf 24 a1 3e bf 5e 61 52 bf
       0.004436021 -0.9058051 -0.7446463 -0.8217982
000090 2a 06 37 3d c7 06 cc bd 20 4c f1 be ca ac 2c bf
       0.044683613 -0.0996223 -0.4712839 -0.67451155
0000a0 fb 24 3c be 06 e9 4b 3e 74 dd 19 bf ef f6 10 bf
       -0.18373482 0.1991311 -0.60103536 -0.5662679
0000b0 18 f5 bc be 46 b0 e2 3e 2c 91 cb bd 3f 59 bf be
       -0.36905742 0.4427511 -0.09939799 -0.37372777
0000c0 97 48 6e be 81 92 4d 3b 6b 12 d4 be 14 69 0e bf
       -0.23269878 0.003136784 -0.41420302 -0.55629086
0000d0 9e 90 b8 be de 03 ef be c8 99 00 bf b9 8f 4a bf
       -0.36047834 -0.46682638 -0.5023465 -0.79125553
0000e0 96 f8 60 3d 3b 7a 69 bf 8a d8 1e bf 0b 09 88 be
       0.05492457 -0.91202134 -0.6204916 -0.265694
0000f0 c8 44 a4 3d ff ef f8 be 82 6f 78 be 28 ad 9a be
       0.080209315 -0.48620602 -0.24261287 -0.30210233
000100 1a 2e 69 3d a0 8b 55 bf 8b 4e 2b 3e 1a 1a 1a bf
       0.05692873 -0.83416176 0.1672918 -0.6019608
000110 08 33 c1 bd 22 39 7c 3d 57 31 d6 bd 7b 7d 91 be
       -0.094335616 0.061577924 -0.104586296 -0.28416047
000120 20 8e d0 bc 9d bd 6a be f5 0b 6c 3e 5c ca 4f be
       -0.025458395 -0.22923894 0.23051436 -0.20292038
000130 20 fb 28 3c 36 85 cc 3c 84 5a df be 8d 69 34 bd
       0.010313779 0.024965864 -0.43623745 -0.044045974
000140 8b 28 56 bf 51 35 fd bd c0 28 39 bf 45 1d cf be
       -0.83655614 -0.12363685 -0.72327805 -0.40452018
000150 45 86 2b 3d c8 11 3f bf 5b 0c a4 be 0d f8 c7 be
       0.041876096 -0.7463651 -0.32040676 -0.39056435
000160 bd 4f ab 3e 1c a9 3a bf 3b 45 d3 bd 03 12 af 3c
       0.33459273 -0.7291429 -0.10315939 0.021370893
000170 93 91 70 be ef 5a 0e bf 78 7b ca be 35 4c 74 3d
       -0.23493032 -0.55607504 -0.39547324 0.05964299
000180 cd f0 f0 be 01 13 b2 be 36 95 b0 3d b8 15 03 be
       -0.47058716 -0.34780124 0.0862221 -0.12801254
000190 e2 ad 60 be fd 90 78 3d cc 04 a7 3d c9 cc 89 be
       -0.21941331 0.060685147 0.08155212 -0.2691405
0001a0 be 4b ca bd 30 43 2c be dc 0a 43 bf 51 f9 b4 be
       -0.09877728 -0.16822505 -0.76188445 -0.35346463
0001b0 c1 24 96 be 16 f5 29 bc 2c 17 40 be b6 00 85 bc
       -0.29324916 -0.010373374 -0.1875884 -0.01623569
0001c0 e0 43 95 3c 76 50 53 be 66 58 06 3c ee df 04 bf
       0.018220842 -0.20636162 0.008199787 -0.5190419
0001d0 a6 3d f3 be 15 52 f0 be 52 1f 6b be 5d c3 ee be
       -0.47507972 -0.46937624 -0.22961167 -0.46633425
0001e0 20 9a e8 be ac ad 42 bf 85 ed 32 be 32 59 da be
       -0.45430088 -0.7604625 -0.17473419 -0.42646176
0001f0 ce 8b 1b bf 41 3a d8 be 77 a3 3b bf 01 c1 e2 bd
       -0.607602 -0.42231944 -0.732963 -0.11071969
000200 33 df d3 be d3 df a7 be f3 b0 70 be ba 0f 4b be
       -0.41381225 -0.32787952 -0.23505001 -0.19830218
000210 9c 3d 32 3d 17 65 7b bd 2f d7 0e be 22 54 f3 be
       0.043515787 -0.061375704 -0.13949274 -0.47525126
000220 3f 08 d7 3e 76 56 dd be e0 2b 3a bf b7 e2 16 bf
       0.4199848 -0.43230027 -0.727232 -0.5893969
000230 c0 f8 e2 be 1d 5f 2a bf 49 7a 31 be 24 0d 01 bf
       -0.44330406 -0.6655138 -0.17331804 -0.50410676
000240 bb 74 50 be 8b 41 31 be 7d 5c 21 be 58 51 e6 be
       -0.20357029 -0.17310159 -0.15757938 -0.44983935
000250 9b 9d 34 be 22 6c 1b 3d 89 95 5d 3e cb 88 75 bf
       -0.17638247 0.03794492 0.21639074 -0.95911855
000260 e2 1e 34 be b2 52 a6 3e d4 6a 1c 3e e1 4e dd bb
       -0.17589906 0.32484967 0.15275127 -0.006753788
000270 97 c2 2a be aa 8f 3c bf 4f 4d 2e bf 9f c4 50 be
       -0.16675793 -0.73656714 -0.68086714 -0.20387505
000280 42 48 18 3e 88 82 34 be 79 49 85 be 4c ed a1 be
       0.14871314 -0.17627919 -0.26032618 -0.31626356
000290 bd 7f 7f 3d 8d 90 a1 3e 0f 4e b9 be 2c ea 43 be
       0.06237768 0.31555596 -0.36192366 -0.19132298
0002a0 3b f1 67 bf 40 07 5e be 95 31 5b be cb fc 15 bf
       -0.90602463 -0.21682453 -0.21405633 -0.58588856
0002b0 7e ff 5f 3a 6f 4f 80 be be f6 5f be 05 03 0d bf
       0.0008544846 -0.25060603 -0.21871468 -0.5508273
0002c0 10 b0 0b bf d8 de 65 be 8b 9a 13 bf e1 1c 3d bf
       -0.54565525 -0.2244829 -0.5765769 -0.7387219
0002d0 42 88 f2 be 66 41 20 bf 2d 3b 0a bf b0 0c ff bc
       -0.4736958 -0.6259979 -0.53996545 -0.03113398
0002e0 42 d0 ac be 47 b5 2f bf f3 45 34 bf 2e 69 e6 be
       -0.33752638 -0.6863598 -0.70419234 -0.4500212
0002f0 6c f4 41 bf a9 8d ee bd b7 32 59 3c ed ff 52 3d
       -0.75763583 -0.11648113 0.01325672 0.0515136
000300 1a 23 8d be d9 bc 6b be 26 c8 28 bf 33 c9 e5 3c
       -0.27565843 -0.23021258 -0.659304 0.02805004
000310 ff a0 a3 3e 5a 76 ef be 85 60 f7 be a6 09 29 3d
       0.31958768 -0.46769983 -0.48315826 0.041268967
000320 31 bc 34 be c8 39 96 3d e8 48 c1 bd 26 3c 1b bf
       -0.17649914 0.0733524 -0.09437734 -0.60638654
000330 5a cf 06 be 3e 87 c3 be 33 0b f8 3b fc 4a 52 be
       -0.13165036 -0.3818912 0.0075696944 -0.20536417
000340 c9 41 69 be d2 13 2e 3d 30 29 d1 be 17 69 9c 3d
       -0.22779001 0.04249937 -0.40851736 0.07637232
000350 a9 fa 4c be 49 f7 c2 be 76 59 ed 3c 84 4d f5 be
       -0.20017494 -0.3807929 0.028973322 -0.47910702
000360 59 13 13 bf 31 f8 06 be 13 cf 1e 3e a2 2a 1b 3e
       -0.574514 -0.13180615 0.1550868 0.15152982
000370 86 6c 88 be f1 13 0c bf 2b 33 03 be b5 ec 71 3e
       -0.26645297 -0.5471793 -0.12812488 0.23625453
000380 f5 37 d2 3d 50 ca fe be f5 70 69 be 02 c4 93 3d
       0.10264579 -0.49763727 -0.22796996 0.0721512
000390 fa ce 42 be c7 6a 14 bf 9c 48 d3 be 99 cb ec 3d
       -0.19024268 -0.5797543 -0.41266334 0.11562271
0003a0 5f 60 8a 3e d5 5e 62 be a9 06 1b be 46 73 66 be
       0.2702665 -0.22106488 -0.1513926 -0.22504911
0003b0 49 14 d9 3e 10 d3 e3 bd 58 ef 63 3c 37 e7 91 bf
       0.4239829 -0.11124241 0.013912044 -1.1398686
0003c0 85 9a 4f bf 97 82 3c bf 07 eb e7 bd 8f 13 66 be
       -0.81095153 -0.73636764 -0.11324125 -0.22468399
0003d0 3a 8d d7 bd bb 54 9e be 93 04 bc 3d 82 67 dc be
       -0.10524984 -0.3092402 0.0918056 -0.4304772
0003e0 38 86 41 bf 22 0d 34 3e 44 77 29 bf db cb 67 be
       -0.75595427 0.17583135 -0.6619761 -0.22636358
0003f0 c0 98 59 bd 6c 4a 01 bf 54 8e 3d bf d1 b1 5f 3d
       -0.05312419 -0.50504184 -0.740453 0.05461294

weight f4 [256, 512]
000000 1a bd eb bb 86 ca e0 3d 75 0a 9b 3d a0 d9 e5 bc
       -0.0071941735 0.10976128 0.07570354 -0.028057873
000010 39 2a 98 3d 72 62 42 3e e2 1c 34 3e 9d 2f 9d bd
       0.07429928 0.18982866 0.17589143 -0.07675097
000020 c7 e9 07 3e ce e7 ba bd 0f 7e b3 3d d8 40 90 bf
       0.13272773 -0.091262445 0.08764278 -1.1269789
000030 d6 88 37 3d 66 9b 7a 3d fa 99 aa 3e a8 52 ae be
       0.04480823 0.061183356 0.333206 -0.34047437
000040 96 38 fa 3b f5 22 19 3d ea c9 05 3e 39 7f b0 3d
       0.00763614 0.037386853 0.13065305 0.08618016
000050 6e 66 75 bf 96 b4 1d 3d 88 c0 d4 3e af 1b 6e 3e
       -0.9585942 0.0385023 0.4155314 0.23252748
000060 bf 90 e3 3e 6b 3c 24 be c7 fa 06 be 07 b4 14 3d
       0.4444637 -0.16038673 -0.13181601 0.0363045
000070 cb 87 ed bd af 61 19 bd 36 ef d6 3e 24 3b 86 3d
       -0.11598166 -0.037446674 0.41979378 0.06554249
000080 5e 02 52 3d 9c e2 c6 3e 7b e9 f2 3e e9 ea 3c 3e
       0.05127179 0.38844764 0.47443756 0.18448986
000090 77 90 c8 3d a3 85 82 3d 71 ae 07 c0 ee 40 8e 3d
       0.097931795 0.063731454 -2.120022 0.06945978
0000a0 22 a2 fa 3c 08 07 bf 3d 64 ae 4c be 55 b4 e4 3e
       0.03059489 0.09327513 -0.199884 0.44668832
0000b0 9e d9 a1 be 16 5a 9f 3d 68 cf 78 3e ed e3 df bd
       -0.3161134 0.077808544 0.24297869 -0.10932145
0000c0 23 27 9d 3d 00 2d 00 3d 6c 0b 6c 3c 16 3e 88 bf
       0.0767348 0.031292915 0.01440702 -1.0643947
0000d0 e7 04 d1 bc cb b3 39 be 3f c9 7f 3d 46 b0 50 3d
       -0.025515033 -0.18134992 0.062447783 0.050949357
0000e0 6a 05 0b 3e d2 9c d3 be ae 6f 2e 3e b8 18 8f 3e
       0.13576284 -0.41330582 0.1703479 0.27948546
0000f0 53 db 45 3e bc bc 33 3e a1 3b aa 3d ba 88 ff bb
       0.19321947 0.17552465 0.083121546 -0.0077982815
000100 b6 13 da 3d 6b 2d 87 bd 94 9e f9 3c 68 7d c3 3e
       0.10648291 -0.0660046 0.030471124 0.38181615
000110 45 de 82 3d f8 e3 2c 3e b5 64 9c 3c 5e 50 43 bc
       0.06390051 0.16883838 0.01909099 -0.0119210165
000120 7c b2 eb 3d 7d da 15 3e 37 2a d6 3d 6f 10 3d 3e
       0.115086526 0.14634128 0.104572706 0.184633
000130 22 ad a2 bd d2 41 e9 3d fb ea 66 bb 1f 0b 01 3e
       -0.07943179 0.11389507 -0.0035235274 0.12601899
000140 fc ea 90 3e 3b f1 bb 3d 07 08 5d 3f 40 1d 04 be
       0.2830428 0.091768704 0.86340374 -0.12901783
000150 d9 f7 d3 3d 44 cd eb 3d a0 fd 05 3e 63 7b 8f be
       0.103500076 0.11513761 0.13085032 -0.28023824
000160 61 13 16 3e 26 29 26 bd 90 e9 64 3d c8 29 75 3d
       0.1465583 -0.040566586 0.055886805 0.0598543
000170 17 51 74 3e eb 6d 78 bc a0 25 fe bd a2 04 b6 3c
       0.23859058 -0.015162925 -0.1240952 0.022219006
000180 4f 6e 71 3e 7e c2 2b 3e 00 7b f6 3d 11 bd 40 3d
       0.23577236 0.16773412 0.12035179 0.047055308
000190 b7 de 83 3c 63 f8 1c 3e 07 00 fb 3d 4a c9 b2 bd
       0.01609741 0.15329127 0.122558646 -0.08729799
0001a0 9a 06 0b 3c ea b5 f2 3b 7d 67 2c 3e 66 8d d6 3d
       0.008485461 0.0074069398 0.16836353 0.10476188
0001b0 9f 02 00 3e f9 45 bf 3d 6e 42 a6 bc ca ae 41 3e
       0.12501 0.09339518 -0.020295348 0.18914333
0001c0 72 67 15 3e 21 04 e9 3d f9 34 20 3d 33 e4 55 bd
       0.14590243 0.11377741 0.03911302 -0.05221958
0001d0 4a 49 99 bd 47 0b e7 bc b9 a1 de 3d 66 1b 65 bd
       -0.07484682 -0.02820362 0.1087069 -0.055934332
0001e0 3a fb 74 bd fe 44 b2 3e c3 e2 93 3e 6d d5 44 c0
       -0.0598099 0.34818262 0.28883943 -3.0755265
0001f0 c4 36 46 bf 26 38 fc bf 5e f0 eb 3e 0e 1e 9c 3d
       -0.77427316 -1.9704635 0.46081823 0.0762292
000200 bc 5b 7c be b2 ce 97 be ac 8a bb 3d f5 04 ef 3c
       -0.24644369 -0.29649884 0.09157309 0.029177168
000210 ea 54 a9 3d aa da ae 3c 56 5f 63 3d f1 bc 40 3e
       0.08268149 0.021344502 0.05551084 0.18822075
000220 60 35 cc 3d 42 32 4c be 47 fb 4f be 45 9f 5d be
       0.09971118 -0.19941047 -0.20310698 -0.21642788
000230 fd de 32 bd c0 72 00 bf f4 b3 05 3d 79 b3 ea bd
       -0.04366969 -0.50175095 0.03264232 -0.11460013
000240 37 ee 8e 3d f8 a2 4f bb e2 72 8d 3e 2f db e5 3d
       0.069790296 -0.003168283 0.2762671 0.112234466
000250 d0 90 0d 3e af 0e 4a 3d ef 53 bb 3d 07 bd a1 3e
       0.13824773 0.04933041 0.091468684 0.3158953
000260 68 21 f9 3d 35 87 ea 3d fe 58 92 3d ed 15 14 3e
       0.12164575 0.1145157 0.0714588 0.14461489
000270 c0 5c f0 3d c5 ee 8c ba 79 72 4d 3e da 03 74 bd
       0.11736441 -0.0010752311 0.20063199 -0.059573986
000280 80 7b f6 3d 1a b7 b7 3d 1b 84 36 3d 59 1a 97 3d
       0.120352745 0.08970471 0.04455958 0.07378072
000290 55 3f 1a 3e 96 9e b0 3d c4 a6 03 bf 15 0e 90 bc
       0.15063222 0.08623998 -0.5142634 -0.01758484
0002a0 c6 eb 2c 3d 22 0c ce 3e 2a cf 0a 3e 52 51 bc 3e
       0.04221704 0.40243632 0.1355559 0.36780792
0002b0 69 72 45 3e d5 41 c3 3e d9 71 1b 3c 42 06 25 be
       0.19281925 0.38136163 0.009487593 -0.16115668
0002c0 05 89 b0 3c b7 b2 b3 3d e6 40 4c 3e bd 2e 82 3c
       0.021549711 0.087743215 0.19946632 0.015891427
0002d0 2d 10 50 bf ca c7 31 3e b3 fd ab bc 64 73 a2 bd
       -0.8127468 0.1736137 -0.020994997 -0.07932165
0002e0 f6 25 b3 3e 37 01 ba 3e b6 77 e6 be 7f b1 de 3d
       0.349899 0.36329052 -0.45013207 0.108736984
0002f0 7b 0f 29 bd 04 12 25 3d 96 e9 1a 3e f2 45 57 3e
       -0.04127453 0.040300384 0.15128168 0.21022776
000300 20 d4 06 3e 7c 39 f3 bc f7 7a b4 3e 76 84 56 3d
       0.13166857 -0.029690497 0.35250065 0.05237242
000310 83 60 a2 3d 16 07 33 be 1e ca a3 be bb 39 79 3e
       0.079285644 -0.17483172 -0.3199014 0.24338429
000320 b8 1b b9 bd ab 8a c3 3c 46 35 44 bc db 93 35 3e
       -0.0903849 0.023869833 -0.011975592 0.17732184
000330 b1 4a a9 3d 05 a4 9e bf 5e a9 d7 3d 76 0a 74 bd
       0.082661994 -1.2393805 0.10530351 -0.05958029
000340 8b 3e 6d 3d 40 3c 86 3d df e8 07 be b6 94 7c 3d
       0.057920974 0.065544605 -0.13272427 0.06166526
000350 9a 25 a8 3d bf c0 a9 bf d9 ca ff 3d 1b 8e b7 be
       0.08210297 -1.3261946 0.12489862 -0.35850605
000360 d5 25 91 be 11 3d 19 bd 90 db 91 3d 9c 93 c9 3d
       -0.28349176 -0.037411753 0.07121956 0.098426074
000370 0c 8d 8b 3c 84 95 41 bd 91 74 58 bb 49 a8 f8 3d
       0.01703503 -0.04726173 -0.0033028463 0.12141473
000380 45 85 cc 3d 53 c2 ea bb fb d2 67 bc 0f b6 27 3c
       0.09986357 -0.0071642785 -0.014149423 0.010236277
000390 05 ab 68 3e be ba 35 3e d8 12 04 c0 7a 36 1f 3d
       0.22721489 0.17747018 -2.0636501 0.038870312
0003a0 82 98 17 3e bc 7f 0b be 0f fc 8e 3e ca 8c 9c 3e
       0.14804271 -0.13622946 0.2792668 0.30576164
0003b0 3d 1a ee 3d 41 e8 af bc 37 92 d4 3d 4f ae a6 bf
       0.11626098 -0.021473052 0.10379451 -1.3021945
0003c0 a2 6d 07 3f 5e 1c a4 3f 26 6c f9 3a 58 d5 db 3c
       0.5290166 1.2821157 0.0019029423 0.026835129
0003d0 5c f4 51 3d 19 c5 fa 3d 57 91 2e 3b 44 c7 0c 3d
       0.05125843 0.12244625 0.0026636922 0.034369722
0003e0 ab 76 bb 3e 5d 0f 80 3d 31 79 c0 3e d2 8d e7 3c
       0.36613974 0.0625293 0.37592462 0.028265867
0003f0 c4 45 f0 3d 38 8b 1d be 98 1c 8c 3e 7b 18 f8 3c
       0.11732057 -0.15385139 0.27365565 0.03028511

bias f4 [256]
000000 ce b5 44 40 b7 e6 9a 3c 40 8e 22 40 e7 15 43 40
       3.0735965 0.018908842 2.5399323 3.0482118
000010 83 09 33 bd b3 86 42 40 b4 ec 0e bf 15 40 fc 3d
       -0.043710243 3.0394714 -0.5582993 0.1231691
000020 7d df 44 3f 3d 72 99 3c 69 b9 3e 40 bf 94 04 3e
       0.76903516 0.01873123 2.9800665 0.12947367
000030 86 78 ca 3c ee e6 43 40 33 bb bf bc 02 a5 da bf
       0.024715673 3.0609698 -0.023404693 -1.7081606
000040 8b d5 46 40 25 d5 40 bf f2 b1 c6 bc 8d 0b 40 40
       3.1067836 -0.7532523 -0.024254773 3.000705
000050 ef 2e 54 bd ad 3c c6 bc 3b d8 57 bd 43 1c 46 40
       -0.051802572 -0.024198854 -0.052696448 3.095475
000060 dd 21 26 bc 69 01 ca 3e 1a 41 82 bf b4 83 e1 bc
       -0.01013991 0.394542 -1.0176117 -0.027528621
000070 07 d0 b3 be 90 9c 17 be c3 b5 39 40 a0 d1 9d 3f
       -0.3511965 -0.14805818 2.9017189 1.2329597
000080 cb 1d df bc 69 f3 31 40 ee 0b 32 bf ec dd 04 bc
       -0.027235886 2.7804816 -0.69549453 -0.008109551
000090 43 87 7b bd 83 76 70 bd 01 36 8d 39 17 00 40 40
       -0.061408293 -0.05870677 0.00026933852 3.0000055
0000a0 d2 b3 14 be 23 9f 98 be 59 b2 3d 40 ec fa f0 3f
       -0.14521721 -0.29808912 2.9640105 1.8826575
0000b0 a3 47 f1 3b 8d 61 0e bd 84 fa 01 40 d3 b0 01 40
       0.007363276 -0.034761 2.0309153 2.0264175
0000c0 c0 01 38 40 fe d5 a4 3f 72 58 63 3d ea 5f 43 40
       2.8751068 1.2877805 0.05550427 3.0527291
0000d0 1b ed 28 c0 1d dc 40 40 50 21 6e 3c 1d c5 49 40
       -2.6394718 3.0134346 0.0145343095 3.1526558
0000e0 40 a3 91 bc 5e 3d 34 40 73 1e e4 bb 3a 8c 14 40
       -0.017778039 2.8162456 -0.0069616376 2.3210588
0000f0 7e 76 14 40 17 33 ae bc af 0e a2 3c a2 72 45 bd
       2.3197322 -0.021264596 0.019782392 -0.048205025
000100 31 14 33 40 a2 e3 c8 3f d0 a9 29 40 84 1a 0c 40
       2.7981074 1.5694468 2.6509895 2.1891184
000110 d1 92 55 bd 0e 56 d1 3e 26 86 28 40 34 cf 5d bd
       -0.05214197 0.40885967 2.6331878 -0.054152682
000120 01 df 44 40 ec 66 28 40 0e 28 43 40 47 0c 44 40
       3.076111 2.6312819 3.0493197 3.0632493
000130 85 1f 3e be 41 5f 2e 40 03 79 44 3c f1 08 42 40
       -0.18566711 2.7245638 0.011991742 3.0317957
000140 81 64 18 bb 66 d4 46 bf 9f ae 05 40 28 54 39 40
       -0.0023253264 -0.77667844 2.088783 2.8957615
000150 23 aa c7 3e cb 0b 1d bc 7e 71 46 40 91 85 65 bf
       0.38996992 -0.009585331 3.100677 -0.8965693
000160 3b 4d 44 40 af e5 55 be ba 81 df 3f f0 d1 cb bc
       3.0672138 -0.20888399 1.7461464 -0.02488038
000170 c8 7f 48 40 19 37 43 40 6d f1 3f 40 c1 7b b7 bc
       3.1327991 3.050238 2.9991105 -0.022397878
000180 0e 8d 03 be f5 2f 6a 3b ea 17 42 40 95 f5 59 bc
       -0.12846777 0.003573415 3.0327096 -0.01330318
000190 1d c2 44 40 8e 40 40 40 0a fe 7a be f0 71 01 bd
       3.0743477 3.00394 -0.2451097 -0.0316028
0001a0 35 df 42 40 73 4f f8 3f 56 46 13 bf 1e 7c 2a 40
       3.0448735 1.9399246 -0.575292 2.6638255
0001b0 33 7c 32 40 96 c2 67 bd b4 dd 75 bd e4 da 03 40
       2.7888305 -0.056582056 -0.060025886 2.060235
0001c0 e5 39 73 be 52 d2 8f bf 48 03 2d bd ed 81 8d bf
       -0.23752554 -1.123606 -0.042239457 -1.1055275
0001d0 9f 13 2b 40 a9 a1 83 bd 8e cb 7c bd f2 85 2f 3e
       2.6730726 -0.064273186 -0.061717562 0.1714094
0001e0 9d 9d 21 40 a5 57 d8 bf e9 b6 02 40 dd bf 31 40
       2.525245 -1.6901747 2.042414 2.7773354
0001f0 1a aa 07 40 2a fc d4 bd 83 ea 08 bd 67 e2 41 c0
       2.1197572 -0.10399659 -0.033426773 -3.0294435
000200 55 82 19 bf 99 74 84 bd 44 79 17 bc 5a 81 36 40
       -0.59964496 -0.06467552 -0.009245221 2.851645
000210 2f 5d 34 bf b9 80 ce be 5f 55 43 40 89 3a 9c bf
       -0.70454687 -0.40332583 3.0520856 -1.2205364
000220 64 03 05 40 a0 65 41 40 c9 56 80 bd c5 ab 82 bc
       2.078332 3.0218277 -0.06266553 -0.015951047
000230 b6 36 49 40 d9 a3 41 40 22 64 84 3f af cf 46 40
       3.1439643 3.0256255 1.0343058 3.106426
000240 b6 b7 18 bc de d9 15 40 b4 53 45 40 6b 9e e7 be
       -0.009321144 2.3414226 3.0832338 -0.4523805
000250 06 9f 0b 3c d0 6d 3b 40 a7 81 05 c0 98 95 c6 bb
       0.008521801 2.9285774 -2.0860384 -0.0060603134
000260 61 07 3f bc e4 6d 00 40 29 37 38 bc e3 91 3d 40
       -0.011659474 2.0067072 -0.01124362 2.9620292
000270 6c 50 45 40 27 af dc 3b 5a 2e 1b bd 29 4f 2a 40
       3.0830336 0.006734747 -0.037886 2.6610816
000280 b7 29 3d 40 c4 de 17 bd dc f2 07 40 a5 18 2f 40
       2.955671 -0.03707768 2.124198 2.7358792
000290 d6 fd 21 40 ce 08 2b bd ba 34 46 40 74 9a 11 3b
       2.531118 -0.041756444 3.0969682 0.0022217305
0002a0 d4 37 35 40 68 7a fc bd 7f f0 d9 bf 83 b8 44 bd
       2.8315325 -0.12328035 -1.7026519 -0.048027527
0002b0 42 90 99 bc 90 ee e0 bc 15 1f 23 40 64 16 e9 3f
       -0.018745545 -0.027457505 2.548772 1.8209958
0002c0 f5 6c 1f 40 7d af e5 3f c7 f4 4e 3f eb 78 2c 40
       2.4910252 1.794418 0.8084225 2.6948802
0002d0 67 8e 4f 3d c0 cd d4 be d6 d7 ba 3c 35 44 f6 3f
       0.050672915 -0.41563225 0.022807997 1.9239565
0002e0 4b 96 65 bd 2d f4 00 bd 55 d1 25 bd d7 24 10 40
       -0.056051534 -0.031482864 -0.040482838 2.2522485
0002f0 88 36 36 40 5f 51 3e be 6a 57 36 40 4d ed a5 3f
       2.8470783 -0.18585728 2.8490853 1.2963043
000300 6d 77 10 40 2b 07 2a bf 74 29 b1 3f 55 49 2d 40
       2.2572892 -0.6641719 1.3840775 2.7076008
000310 1c f3 41 40 cf 3e 21 bc 68 d2 45 40 d2 78 b6 bf
       3.0304632 -0.009841635 3.0909672 -1.4255621
000320 3f a9 25 bd cd fb 30 40 c8 8f a6 bc d7 8d 79 3e
       -0.04044461 2.7653687 -0.020332232 0.24370514
000330 5a d0 35 40 7d 2e 95 3e 9f 6f 33 40 26 1a 21 3f
       2.8408418 0.2913703 2.8036878 0.62930524
000340 a4 f3 40 40 e0 a0 fc bc 03 45 26 3e db 8f 66 bf
       3.0148706 -0.03083843 0.16237263 -0.90063256
000350 ac 18 e5 3f c2 ed 43 40 9c 7c c8 bc c0 da 32 40
       1.7898154 3.0613866 -0.02447348 2.7946014
000360 a4 bd a2 bc c1 2d 21 bd c5 91 d0 bf b2 96 23 bd
       -0.019865818 -0.039350275 -1.6294485 -0.039938636
000370 08 6a 3d 40 97 4d 04 40 c4 d9 22 40 77 a1 a6 be
       2.9595966 2.0672357 2.5445414 -0.32545063
000380 f7 3b 3f bd fa 6b 90 3c db 1c 3d bd 0b d8 92 bc
       -0.046688046 0.017629612 -0.046170097 -0.017925283
000390 99 19 fb 3f 2e 87 38 40 e0 fa b1 be da d0 a9 be
       1.9617187 2.8832507 -0.34761715 -0.33167154
0003a0 f8 c9 a9 3c 0c b4 3a 40 95 b2 13 3f 78 f2 26 40
       0.020726189 2.9172392 0.5769437 2.608549
0003b0 d3 bb 3a 40 71 2e 30 40 73 a6 5d 3c a6 81 43 3b
       2.9177139 2.7528346 0.013528454 0.0029831915
0003c0 23 f3 fb bc 97 46 c0 bf 2e 28 63 bc b6 01 98 bf
       -0.030755585 -1.5021542 -0.01386456 -1.1875522
0003d0 cd 88 96 bf 8f 8e b1 bc 6e 18 42 40 5c e5 41 40
       -1.1760498 -0.021674423 3.032741 3.029624
0003e0 45 f3 0e bd 68 64 01 40 60 c3 86 bf c0 d8 1f bd
       -0.03489997 2.0217533 -1.0528374 -0.03902507
0003f0 c0 ee 39 40 d2 02 de bd bb ee d5 bc 38 9a f0 bc
       2.9051971 -0.10840382 -0.026114812 -0.029370412

weight f4 [2, 256]
000000 f9 f5 9d 3d 54 22 38 bd 1c 18 d4 3f cb f8 63 3d
       0.07712931 -0.044954613 1.6569858 0.05565719
000010 1d ba 44 bf a6 f8 e6 3b 40 25 32 bf 2a 9e 13 bf
       -0.76846486 0.007048684 -0.6958809 -0.57663214
000020 3f c1 87 40 b6 72 ad be 94 fa 41 3f 30 6c bc bd
       4.2423396 -0.3387658 0.75772977 -0.09200323
000030 e4 25 c0 ba 9f 88 04 3f 46 c1 b3 3a 80 72 99 bf
       -0.001465973 0.5177097 0.0013714216 -1.1988068
000040 98 fd 38 3e 8d 40 62 be 90 51 26 bb 70 76 0a 3f
       0.18065488 -0.22094937 -0.0025378205 0.5408697
000050 7a f0 4a bc 49 21 d9 bb 3f dd 4d bd 52 0c bd bd
       -0.012386436 -0.0066262824 -0.050259825 -0.092308655
000060 33 1b 96 bc f5 6f 30 bf 68 0a 45 bf 98 c8 3d bd
       -0.018323516 -0.6892083 -0.76969004 -0.04633388
000070 da e5 d2 3e 38 a2 f8 bf cd 0b ed 3f 7b 87 a6 be
       0.41190988 -1.9424505 1.8519226 -0.32525238
000080 3e e3 03 3d 38 ca 58 3f 03 44 53 be 2e e2 aa bb
       0.032199137 0.8468356 -0.20631413 -0.005214951
000090 fb 4f 04 bd 38 a8 b6 bc c6 20 76 3d e2 3c 27 3f
       -0.032302838 -0.02229701 0.06008985 0.65327275
0000a0 ef d2 8c bc 44 0d c4 3d 27 12 62 3f 8a 0c cc 3f
       -0.017190425 0.09572843 0.8830895 1.5941327
0000b0 80 ce 49 3c 99 33 d4 bb 0f ca d3 3f 95 80 d4 3f
       0.0123173 -0.0064758775 1.6546038 1.660174
0000c0 3a 3d 88 3f af ec 37 bd e9 34 1f 3f b1 73 dd 3e
       1.0643685 -0.044903453 0.6219011 0.43252328
0000d0 95 51 48 bf 1b 99 30 3f 6f 8f 01 3d 09 2f 66 3e
       -0.78249484 0.6898362 0.03163093 0.2247888
0000e0 36 68 00 38 23 1c 32 3f 2f 18 ea bc 6a 67 58 3f
       3.0614632e-05 0.69574183 -0.028575985 0.845328
0000f0 6e 54 0d be 9e d5 1c 3f 4c 08 40 bd cb 47 e9 bc
       -0.13801739 0.61263454 -0.046882913 -0.028476616
000100 6d b6 37 3f b1 60 ea be d4 7e 0b 3e d0 f0 2c 3f
       0.71762735 -0.45776895 0.136226 0.6755495
000110 fd 98 81 bd fb fa f9 3d b4 74 52 3f 10 1b 80 bb
       -0.06328008 0.12206074 0.82209325 -0.003909476
000120 2e b1 78 3d bb 97 58 3f c2 9e 12 3d ea cf 81 3d
       0.060715847 0.8460652 0.035795934 0.063384846
000130 34 22 b4 3c 54 11 4d 3f ec 79 ad 3c 40 e2 09 3d
       0.021988966 0.80104566 0.021176301 0.033663034
000140 2a 35 22 bd cf 6a 3c bf bb 2e 59 3f 50 1e ed 3d
       -0.039601482 -0.73600477 0.8483693 0.11578047
000150 a4 c7 48 be f3 55 56 bb c9 e6 9e 3d 11 3e 8b bf
       -0.19607407 -0.0032705038 0.077588625 -1.0878316
000160 ef 17 12 3f 68 06 7b be 37 94 a3 be de 46 78 bc
       0.5706777 -0.24514163 -0.31949016 -0.015153615
000170 aa 10 f2 3d 16 e7 3e 3d 9d 17 e9 b9 3b 11 1d bd
       0.11819585 0.0466071 -0.00044458816 -0.03834651
000180 7e c8 89 c0 67 89 b6 3f b2 8e b6 3c 75 33 99 3b
       -4.305724 1.4260682 0.02228484 0.0046753236
000190 15 aa de 3e 14 53 23 3c ac bf 85 c0 ee 18 93 3b
       0.43489137 0.009968538 -4.1796474 0.004489056
0001a0 88 7a 55 3d f9 8d 53 3f 72 b4 6d 40 d1 c3 49 3f
       0.052118808 0.8263851 3.7141385 0.7881442
0001b0 29 a3 b0 3e f2 6b 18 bc 4e 96 36 3b 14 27 b4 3f
       0.3449948 -0.00930308 0.0027860585 1.4074426
0001c0 bd 20 86 3e 9b ae 04 c0 f9 3c 6e 3a 65 32 02 c0
       0.26196852 -2.073157 0.0009088065 -2.0343258
0001d0 8f 79 c1 3f 4a fc 30 bd 05 8c d8 bc e8 b0 ce 3f
       1.5115222 -0.04320935 -0.026433954 1.6147738
0001e0 8b 12 59 3f 3c 3e ca be d9 00 1c c0 31 48 aa 3f
       0.8479392 -0.39500606 -2.4375517 1.3303281
0001f0 e4 db 8b 3f a0 8d 8e c0 14 b3 58 bc 99 94 e0 bf
       1.092648 -4.454788 -0.013226289 -1.7545348
000200 7d 86 0f bf d7 6e 11 bd 62 75 6f 3c 64 86 46 3f
       -0.5606459 -0.035506096 0.014615389 0.77548814
000210 d9 c5 0f 40 00 fc 8d be 76 aa 89 3d 9a dd 08 c0
       2.2464507 -0.27731323 0.06721966 -2.1385255
000220 e2 65 ad 3f 47 a6 fa 3d 03 e9 38 bc 98 94 56 bd
       1.3546717 0.12238746 -0.011286023 -0.052387804
000230 57 10 1e be 91 5f 8b 3c 0d 88 75 bf d0 6b 4e 3e
       -0.1543592 0.017013343 -0.9591072 0.20158315
000240 dc 4e 20 3c 0e 15 5d 3f f8 cc f5 bd 4d d5 c6 3f
       0.009784427 0.8636025 -0.12001985 1.5533844
000250 af db 87 bc 3d 0b 8d 3e 0f 0b 4d bf 52 8c 9d 3c
       -0.016584245 0.27547637 -0.80095 0.019231949
000260 ec cc 8f bc c8 2f cd 3f 7c f5 d9 ba 84 98 cb bd
       -0.017553769 1.6030207 -0.0016628946 -0.099411994
000270 a1 88 30 3e 0e c2 23 bd 07 56 16 39 48 aa db 3f
       0.1723962 -0.039979987 0.00014337162 1.7161341
000280 69 9f 44 3f 90 dd 5b 3b ba b5 3d 3e 07 cb 30 3f
       0.7680574 0.003354881 0.18526354 0.69059795
000290 15 b0 fd 3f e4 cd 7d bb 62 62 83 3c 93 44 12 bd
       1.9819361 -0.0038727457 0.016038124 -0.03570993
0002a0 2a 29 18 3f 35 43 80 c0 fe fc 01 bf ff 35 1a bd
       0.5943781 -4.008204 -0.5077666 -0.03764915
0002b0 ae 48 8e bc e6 92 c3 bc 90 0c b2 3f 38 3d 48 3f
       -0.01736864 -0.023873758 1.3910084 0.7821841
0002c0 89 26 58 3f d5 33 e5 3d c7 1f 51 40 d6 19 74 3f
       0.844338 0.11191527 3.2675645 0.9535192
0002d0 5f d4 2d bf a6 49 c7 be aa 0a 37 bb 14 76 53 3f
       -0.6790218 -0.38923377 -0.002792994 0.8260205
0002e0 d8 76 bb bb ba a7 65 3b 4b b0 f0 bc 12 05 2e bf
       -0.0057209544 0.00350426 -0.029380938 -0.67976487
0002f0 c6 14 92 3f 7f dd 8a c0 b1 34 0f 3f 4d 9e 69 3f
       1.141259 -4.339538 0.55939776 0.9125717
000300 02 67 dd 3f a1 65 fa 3f 37 6a a9 be 64 9b 90 bd
       1.729706 1.9562265 -0.33088848 -0.070608884
000310 0e b0 84 bd 5f be 21 bd 3a ac 86 3c 0b 9a 74 bf
       -0.06478892 -0.039488193 0.016439546 -0.9554755
000320 8a 64 fd bc ba 2f b7 3e c8 4e ed bc 9a 92 ed be
       -0.03093173 0.357786 -0.02896823 -0.4640091
000330 1a d4 c6 3f b1 f9 91 bd 9e 35 a0 3f ea 62 ec bd
       1.5533478 -0.07127703 1.2516363 -0.11542304
000340 1a 0d 11 3c ce ca 0e bd d4 df a7 bf 82 48 9b bf
       0.008853221 -0.03486138 -1.3115182 -1.2131503
000350 91 e8 09 c0 5f 4a 6c 3d 46 fe c5 bc 8a 74 a5 3f
       -2.1548197 0.057688113 -0.024169099 1.292619
000360 0e a1 26 bd ea 1d 0b bd de 4c 55 be a8 60 9d bc
       -0.040680937 -0.033964075 -0.20830104 -0.019211128
000370 f2 d9 1f 3f f6 94 70 3f d4 5b e9 3f ba fc fd 3f
       0.62441933 0.93977296 1.8231149 1.9842751
000380 d8 b9 27 bd 49 d0 57 bc 1c d0 29 3d 9a 38 05 bc
       -0.04094872 -0.013172218 0.041458234 -0.008131171
000390 96 d4 28 3d c9 99 0c 3d b3 0f 1f bf 48 6f 51 be
       0.041218363 0.03432635 -0.6213333 -0.20452607
0003a0 27 0e 36 3b f8 e4 34 3f 43 48 0c c0 bd e7 26 3e
       0.0027779432 0.7066188 -2.1919105 0.16299339
0003b0 1e 91 83 3d 88 be f3 3f ae 50 c6 bc f1 59 21 bd
       0.06424163 1.904252 -0.024208393 -0.039392415
0003c0 a4 51 2a bc 17 ed 32 be 28 f5 80 bb 5b c8 04 c0
       -0.010395441 -0.17473255 -0.003935475 -2.0747287
0003d0 f8 3c 06 c0 03 13 b6 bc 88 7e 06 3e 8d 44 87 3c
       -2.0974712 -0.022225862 0.13134205 0.01651218
0003e0 66 4c 02 bd 19 b7 0c c0 b9 8b de be bb f3 d2 3b
       -0.03181114 -2.1986754 -0.43465975 0.0064377463
0003f0 37 9b fb 3e c2 9d bc 3f e7 c3 26 3c ba cf 8a bc
       0.49141857 1.4735644 0.010178543 -0.016944755

bias f4 [2]
000000 d3 5d 20 40 a4 b9 1b 40
       2.5057266 2.4332056
