torch_prj/DuelingDQN/models/dqn_net.pt (torch, 551449 bytes, 7 tensors)

weight f4 [512, 4]
0	0xbf057ec5	-0.5214656
1	0xbf3cefa5	-0.7380317
2	0x3d83e75d	0.064406134
3	0xbdf11fff	-0.11773681
4	0xbfc68878	-1.5510397
5	0xbff516a3	-1.9147533
6	0xbf377a38	-0.71670866
7	0x3f5cb6ca	0.86216414
8	0x3e12df23	0.14342932
9	0x3f5a74c3	0.85334414
10	0xbffd2877	-1.9777974
11	0xbfac3069	-1.3452274
12	0xc0150fac	-2.3290815
13	0xc04dfe3e	-3.2186427
14	0x408aa69a	4.332837
15	0x40433329	3.0499976
16	0xc02108db	-2.5161655
17	0xc00226c2	-2.0336156
18	0x400403c0	2.062729
19	0x40202a2b	2.5025737
20	0xbe8dce7c	-0.27696598
21	0xbf0ec547	-0.5576977
22	0xbf275c4c	-0.6537521
23	0xbd6a7ea4	-0.05724968
24	0xbf773254	-0.9656117
25	0xbf6fbf11	-0.9365092
26	0x3ebbdc1a	0.36691362
27	0x3eafc368	0.3432877
28	0x3f06fda1	0.52730757
29	0xbee92f09	-0.45543697
30	0xbfbb5945	-1.4636618
31	0xbf6766ff	-0.90391535
32	0xc039921b	-2.8995426
33	0xc02edbcc	-2.7321653
34	0x40270569	2.6097052
35	0x402b750b	2.6790187
36	0xbf886bca	-1.0657895
37	0xbf073ddc	-0.52828765
38	0xbf3d0b5d	-0.73845464
39	0xbc081cf9	-0.008307689
40	0xbfa0bdca	-1.2557919
41	0xbfeb8b21	-1.8401834
42	0xbca0fea8	-0.01965268
43	0x3f26c695	0.6514676
44	0x3fa8172b	1.313207
45	0x3fae4793	1.3615593
46	0xc00e5725	-2.2240689
47	0xbffae7a6	-1.9601943
48	0xbf2831cc	-0.65700984
49	0xbf5b667f	-0.8570327
50	0xbf359a04	-0.70938134
51	0x3ed02b20	0.40657902
52	0xc0475cf4	-3.1150484
53	0xc0138e0e	-2.3055453
54	0x4084f0ba	4.1543856
55	0x40663c2d	3.5974228
56	0xc042a57a	-3.04135
57	0xc017cba0	-2.3718033
58	0x4079a27f	3.900543
59	0x4050ec25	3.264413
60	0xbde5be18	-0.11217898
61	0x3db59078	0.08865446
62	0x3efe0f16	0.49620885
63	0xbd285600	-0.04109764
64	0x3fdc9b0c	1.7234817
65	0x3fe641c3	1.7988819
66	0xbfea3652	-1.8297827
67	0xbfe10098	-1.7578306
68	0xbf2f7adc	-0.68546844
69	0xbecb7fa9	-0.39745834
70	0xbf98c809	-1.1936046
71	0xbdd129f9	-0.10213084
72	0xc02d01c4	-2.7032328
73	0xc0094cc0	-2.1453094
74	0x4037bee8	2.871027
75	0x40250550	2.5784492
76	0xbfce82aa	-1.6133626
77	0xc008bdf1	-2.136593
78	0x3ff5a05c	1.9189563
79	0x3ffb1baa	1.9617817
80	0xc047c2d9	-3.1212676
81	0xc03ce4c4	-2.9514627
82	0x403fdc1b	2.9978092
83	0x405cf30d	3.4523346
84	0xc0457794	-3.0854235
85	0xc01dade8	-2.4637394
86	0x407332c9	3.7999747
87	0x405cfc33	3.452893
88	0xc039c59a	-2.9026856
89	0xc03f0a0e	-2.9849887
90	0x408ab7c1	4.334931
91	0x4062ee08	3.5457783
92	0x3f8b32a0	1.0874825
93	0x3fb7a4a2	1.4347117
94	0xc007c1a9	-2.121195
95	0xc01239f8	-2.2847881
96	0xbd1f0ba8	-0.038829476
97	0xbe9f3c98	-0.31100917
98	0xbf109c36	-0.5648836
99	0xbeef6c25	-0.46762195
100	0xc03609aa	-2.8443398
101	0xc008b141	-2.1358187
102	0x40871218	4.2209587
103	0x4040d264	3.0128412
104	0xbdf513d0	-0.119666696
105	0xbd344636	-0.04401227
106	0xbead3c1e	-0.33834928
107	0x3c7f2a41	0.015574039
108	0xc0164cd4	-2.3484392
109	0xc032edc0	-2.795761
110	0x4077d7e3	3.8725517
111	0x404f159b	3.2356937
112	0xc047c402	-3.1213384
113	0xc02afb39	-2.6715834
114	0x408a8431	4.3286366
115	0x405bb524	3.432931
116	0xc02c88d7	-2.695852
117	0xc03c0be6	-2.9382262
118	0x40580191	3.3750956
119	0x4053c464	3.3088617
120	0xc005b36b	-2.0890758
121	0xc009084c	-2.1411314
122	0x3fe6bf78	1.8027182
123	0x4016d7ad	2.3569138
124	0xbff3fbb2	-1.9061186
125	0xc0130b6c	-2.2975721
126	0x4017b5c0	2.3704681
127	0x40401d86	3.001802
128	0xc030131f	-2.751167
129	0xc04e5c8a	-3.2243981
130	0x4073c179	3.8086836
131	0x405e402f	3.4726675
132	0x3f91f9c3	1.1404346
133	0x3ffb6cc9	1.9642574
134	0xc00968f2	-2.1470304
135	0xbfdc0b1c	-1.719089
136	0xc00bfcc1	-2.1873019
137	0xbfeb81df	-1.8399009
138	0x401f312b	2.487376
139	0x40226e1a	2.53797
140	0xbda0b518	-0.07847041
141	0x3d720f30	0.059096515
142	0xbdf243a8	-0.11829311
143	0x3d938410	0.07202923
144	0x3f8c5d58	1.0965986
145	0x40013c06	2.0192885
146	0xc0168a88	-2.3522053
147	0xc016049f	-2.344032
148	0x3ed2b5cc	0.41154325
149	0x3ef2a88c	0.47394216
150	0x3d8ac85c	0.06776497
151	0x3edc34db	0.43009076
152	0xbf26af19	-0.6511093
153	0xbf4eadb6	-0.8073381
154	0xbd1b508f	-0.037918624
155	0xbd91c860	-0.071182966
156	0xc0341734	-2.8139162
157	0xc0412b8b	-3.0182827
158	0x4024e66c	2.5765638
159	0x4036922f	2.8526723
160	0x3fb5a6ea	1.4191563
161	0x3fbd99d8	1.4812574
162	0xc0296211	-2.6466105
163	0xc0108304	-2.2579966
164	0x3f9dc8dd	1.2326924
165	0x3fb7d430	1.436163
166	0xc0222015	-2.5332081
167	0xbfe127f1	-1.7590314
168	0xc03e6369	-2.9748175
169	0xc03c7263	-2.9444816
170	0x407b80d6	3.9297385
171	0x404609ef	3.0943563
172	0xbfea7660	-1.8317375
173	0xc02097d3	-2.5092666
174	0x4002e155	2.0450032
175	0x3feca25c	1.8487048
176	0xbfffa5ee	-1.9972513
177	0xbffea859	-1.9895126
178	0x3fe52dcb	1.79046
179	0x40090252	2.1407666
180	0x3f421336	0.75810564
181	0x3f93006a	1.1484501
182	0xc035e22c	-2.8419294
183	0xbfad9e94	-1.3564019
184	0xbf10735c	-0.56426024
185	0xbf152a58	-0.58267736
186	0xbf872bf6	-1.0560291
187	0xbe70495f	-0.23465489
188	0xc03c0e5e	-2.938377
189	0xc00b7d3a	-2.1795182
190	0x40755996	3.833593
191	0x40637a52	3.5543408
192	0xbfdd98d9	-1.731227
193	0xc001269e	-2.017982
194	0x3ea93636	0.33049172
195	0x3f5821ea	0.8442675
196	0xbea4efbe	-0.3221416
197	0xbfa9b9d2	-1.3259833
198	0xbd3aa993	-0.045571875
199	0x3ed830b6	0.42224663
200	0xbe828a55	-0.25496164
201	0xbed59ecb	-0.41722712
202	0xbf2534ea	-0.64533865
203	0x3eba9885	0.36444488
204	0xc023eabc	-2.561202
205	0xc0203d05	-2.5037243
206	0x401f45d8	2.488638
207	0x4009b373	2.1515777
208	0xc0236a29	-2.5533545
209	0xc03c8692	-2.9457135
210	0x400ad5ce	2.1692996
211	0x403d3e6c	2.956935
212	0xbe917737	-0.28411266
213	0xbf852910	-1.0403156
214	0xbf058059	-0.5214897
215	0x3e40451c	0.18776363
216	0x3fbbf28e	1.4683397
217	0x401cbb4e	2.4489322
218	0xc0218e4b	-2.5243099
219	0xc038e39b	-2.888892
220	0x3f6ede34	0.93307805
221	0x3fd0a736	1.6301029
222	0xc01b4204	-2.4259043
223	0xbff30380	-1.8985443
224	0x3fa4fe5b	1.2890123
225	0x4016004b	2.343768
226	0xc0360b89	-2.844454
227	0xc0366ab7	-2.8502634
228	0x3fa77580	1.3082733
229	0x3fa14f94	1.260241
230	0xc004f78a	-2.0776086
231	0xc0071b49	-2.1110404
232	0x3fe6bdfd	1.802673
233	0x3f968938	1.1760626
234	0xc00ee1f4	-2.232541
235	0xc006c850	-2.105976
236	0xc0488598	-3.133154
237	0xc052b0fb	-3.292052
238	0x404e4d77	3.223478
239	0x405472eb	3.319514
240	0xbff83d9f	-1.9393805
241	0xbfdce8ac	-1.7258506
242	0x3ef82bce	0.4847092
243	0x3fef4093	1.8691581
244	0xbf3ca406	-0.7368778
245	0xbf81c38e	-1.0137804
246	0xbf40aa59	-0.7525993
247	0x3ef4b400	0.4779358
248	0xbffdc4ca	-1.982568
249	0xc00f3c66	-2.2380614
250	0x3ff6086a	1.9221318
251	0x4018d936	2.3882575
252	0xc00ce363	-2.2013786
253	0xc02a3a14	-2.6597948
254	0x40429ce4	3.0408258
255	0x4043fa5c	3.0621557

bias f4 [512]
0	0x404d4438	3.2072887
1	0x40201c21	2.5017169
2	0x4034a768	2.8227177
3	0x402428d0	2.564991
4	0x405229d8	3.283804
5	0x40411f7f	3.0175474
6	0x404364a7	3.0530183
7	0x403b33ef	2.9250448
8	0x404f1478	3.2356243
9	0x404a0895	3.1567738
10	0x402c6b36	2.6940436
11	0x3ed29152	0.41126496
12	0x4035fe1c	2.8436346
13	0x402554c4	2.5832987
14	0x402913b1	2.6418269
15	0xbe5703d0	-0.20997548
16	0x3f328b89	0.69744164
17	0x40407dca	3.0076776
18	0x4057e995	3.3736317
19	0x40472e46	3.1121993
20	0x40354c65	2.8327878
21	0x403432cc	2.8156004
22	0x402f7af1	2.7418787
23	0x3f17cc5b	0.59296197
24	0x40430cbd	3.0476525
25	0x404260e9	3.037165
26	0x40428d24	3.0398645
27	0x403a2aaf	2.9088552
28	0x4027d080	2.6221008
29	0x403465f4	2.8187227
30	0x404ed81a	3.2319398
31	0x4048d6f2	3.1381192
32	0x4020326e	2.503078
33	0x3f3abd2d	0.7294491
34	0x40524d0a	3.285952
35	0xbe6fab50	-0.23405194
36	0x3f9b0c67	1.211316
37	0xbecd3e58	-0.40086627
38	0x404b5b35	3.1774418
39	0x404a178d	3.1576874
40	0x3f1fe5b0	0.6245985
41	0x3f07d8bd	0.5306509
42	0x40345369	2.817591
43	0x40460ab3	3.094403
44	0x4053ecde	3.3113322
45	0x4030a2c7	2.7599351
46	0x403a8c14	2.9147997
47	0x4029e6ff	2.654724
48	0x4006eca3	2.1081932
49	0x40355212	2.8331342
50	0x403cd2c1	2.9503634
51	0x3ff14909	1.8850414
52	0x40503c39	3.2536757
53	0x4031c1f6	2.7774634
54	0x4017402c	2.3632917
55	0x3f590cd4	0.847852
56	0x40236cc9	2.5535147
57	0x3f11e122	0.5698415
58	0x3ef30fa6	0.47472876
59	0x4030f91b	2.7652042
60	0x404b660f	3.1781042
61	0x4038e715	2.8891041
62	0x404ee2b0	3.232586
63	0x405675e0	3.3509445
64	0x402e9cb4	2.7283144
65	0x40528d8a	3.2898889
66	0x40319895	2.7749379
67	0x400f0d3b	2.2351825
68	0x403917b4	2.8920717
69	0x4044bcbf	3.0740201
70	0x4047835e	3.117393
71	0x40499758	3.1498623
72	0x3f56da6e	0.8392705
73	0x4027240a	2.6115746
74	0x401b4fe2	2.4267507
75	0x40563f8c	3.3476286
76	0x4022f423	2.546151
77	0x403f6802	2.9907231
78	0x3ef58e4c	0.47960126
79	0x3faf1a17	1.3679837
80	0x4033bd3b	2.8084247
81	0x405373f4	3.3039522
82	0x40473bf3	3.113034
83	0x40384480	2.879181
84	0x403625ca	2.8460565
85	0x4041a85e	3.0259013
86	0x40547139	3.3194106
87	0x40420a0a	3.0318627
88	0x404342a3	3.0509422
89	0x404577d9	3.08544
90	0x403749c3	2.863877
91	0x402b14fb	2.6731555
92	0x4030f470	2.7649193
93	0x4017f992	2.3746076
94	0x40471964	3.1109247
95	0x40509d90	3.2596169
96	0x402ec0a8	2.7305088
97	0x401b3561	2.425133
98	0x3fc79833	1.5593323
99	0x402ca0e2	2.6973195
100	0x402c53f7	2.6926248
101	0x401f5254	2.4894
102	0x4017ee90	2.3739357
103	0x40492b82	3.1432805
104	0x401ec79b	2.480933
105	0x404ae778	3.1703777
106	0x401c0f8c	2.438449
107	0x404cc790	3.1996803
108	0x403ba2ee	2.9318194
109	0x4052587e	3.2866511
110	0x402c0e1d	2.6883614
111	0x402e68d5	2.7251484
112	0x404421d1	3.064564
113	0x40362f83	2.84665
114	0x3ff74c87	1.9320229
115	0x3f58f7ed	0.84753305
116	0x404978b8	3.147993
117	0x403b3af2	2.9254727
118	0x4038d64b	2.8880794
119	0x403d9c56	2.962667
120	0x3f970028	1.1796923
121	0x40426147	3.0371873
122	0x402e8b14	2.7272387
123	0x403e6c59	2.975363
124	0x402f64bc	2.7405233
125	0x40181950	2.376545
126	0x3f86eed3	1.0541633
127	0x404bf688	3.186922
128	0x404b1186	3.1729445
129	0x404a1fc4	3.1581888
130	0x4033ce0b	2.8094509
131	0x40222719	2.5336363
132	0x4041514b	3.0205867
133	0x402f72c6	2.7413802
134	0x402ed8d3	2.731984
135	0x4036b395	2.8547108
136	0x403cf251	2.9522898
137	0x403aee8f	2.9208105
138	0x4026dcf6	2.6072364
139	0x404cab02	3.1979375
140	0x403195f3	2.7747772
141	0x40411ce0	3.0173874
142	0x404c87a1	3.1957781
143	0x4030e4e3	2.7639701
144	0x404b9666	3.1810546
145	0x403e5f4c	2.9745665
146	0x404b2e1e	3.1746898
147	0x405030b7	3.2529733
148	0x400f01aa	2.2344766
149	0x400172c8	2.0226307
150	0x402cfc95	2.7029164
151	0x40466a4f	3.1002386
152	0x3f716b3e	0.94304264
153	0x404feb99	3.2487547
154	0x402b49a3	2.6763694
155	0x4034f003	2.8271492
156	0x40518512	3.273747
157	0x403812ef	2.8761556
158	0x40291e7c	2.6424856
159	0x402ae451	2.6701853
160	0x402ad710	2.6693764
161	0x403da6b9	2.963301
162	0x403d479a	2.9574952
163	0x4019d57a	2.4036546
164	0x404557f7	3.083494
165	0x401f4fdc	2.4892492
166	0x4046f196	3.1084952
167	0x403c8fcc	2.9462767
168	0x3f428776	0.75987947
169	0x4011e31d	2.279487
170	0x40345051	2.8174021
171	0x401481cb	2.320422
172	0x40273ac3	2.6129615
173	0x3f083973	0.5321266
174	0x40514644	3.2699137
175	0x4040d2f5	3.0128758
176	0x402116c7	2.5170152
177	0x40438d97	3.055517
178	0x404df127	3.2178438
179	0x4042c1e9	3.0430853
180	0x3f131d55	0.5746663
181	0x40133858	2.300314
182	0x403b528b	2.926913
183	0x40333855	2.8003132
184	0x403744f1	2.8635828
185	0x404b2159	3.1739104
186	0x40409a45	3.0094159
187	0x4037d07a	2.8720994
188	0x403ac861	2.9184802
189	0x40372bf9	2.8620589
190	0x40279d73	2.618985
191	0x4033b17a	2.8077073
192	0x4025723d	2.5850976
193	0x404653de	3.0988688
194	0xbe088cfc	-0.13335031
195	0x403ea159	2.9785979
196	0x40368d80	2.8523865
197	0x3f6270b5	0.8845323
198	0x4044016a	3.0625863
199	0x404002b9	3.0001662
200	0x4051af3d	3.2763207
201	0x3f267777	0.6502604
202	0x40455487	3.0832841
203	0x3f3ece83	0.7453386
204	0x4046ec88	3.1081867
205	0x403f1c0a	2.9860864
206	0x40364957	2.8482263
207	0x4048ddad	3.13853
208	0xbee54a5c	-0.44783294
209	0x40491c48	3.1423512
210	0x403cad5b	2.9480808
211	0x402f7aff	2.741882
212	0x40466cdc	3.1003942
213	0x400cf200	2.2022705
214	0x40098e38	2.1493053
215	0x401a37b6	2.4096503
216	0x3ef4d91d	0.47821894
217	0x3fc8d596	1.5690181
218	0x403b0113	2.9219406
219	0x3fc597e2	1.5436976
220	0x4038758c	2.8821745
221	0x402884af	2.6330984
222	0x4036b547	2.8548143
223	0x402c2599	2.6897948
224	0xbec960b0	-0.3933158
225	0x4015b476	2.3391395
226	0x404d2a24	3.205697
227	0x40369191	2.8526347
228	0x404dd07a	3.2158494
229	0x3f56f99f	0.8397464
230	0x40486058	3.1308804
231	0x4043a894	3.0571642
232	0x402ed538	2.7317638
233	0x402a4a82	2.6607976
234	0x4038ce28	2.8875828
235	0x4049fc62	3.1560292
236	0x403324f9	2.7991316
237	0x401db3e2	2.4641042
238	0x404d59b3	3.2085998
239	0x4052763e	3.288467
240	0x404403d9	3.0627348
241	0x3f074fb2	0.5285598
242	0x4042b1ea	3.042109
243	0x402b8dc9	2.6805289
244	0x40475800	3.114746
245	0x4049c9e7	3.1529481
246	0x404935e1	3.1439135
247	0x4047eb20	3.123726
248	0x4035bdd1	2.8397105
249	0x400e1f17	2.2206476
250	0x3f07e444	0.5308268
251	0x4037f252	2.874165
252	0xbe20d405	-0.15705879
253	0x4039d7d0	2.9037971
254	0x404f76c8	3.2416248
255	0x400f2a55	2.2369587

weight f4 [256, 512]
0	0xbcb626bf	-0.022235272
1	0xbb1d3b97	-0.0023991817
2	0x3cdac6c5	0.026706109
3	0x3cf4341b	0.029810002
4	0x3c660834	0.014040042
5	0xbd24ab72	-0.040202565
6	0xbcab94c9	-0.02094497
7	0x3ce64efc	0.028113835
8	0x3998185b	0.00029009845
9	0x3ca2be7b	0.019866219
10	0x3cc5fa92	0.024167333
11	0xbd5dfd83	-0.054196846
12	0x3be0e8c4	0.0068636853
13	0x3c1405a7	0.009034551
14	0x3c923458	0.017847225
15	0xbc456366	-0.012047624
16	0x3bd1be15	0.0064008334
17	0xbd48f46b	-0.04906122
18	0x3c6f1324	0.014591966
19	0xbc30040d	-0.010743153
20	0x3d164d92	0.03669507
21	0xbd1e5d35	-0.038663108
22	0xbc766162	-0.015037866
23	0xbbb22666	-0.0054367064
24	0xbb724cbe	-0.0036972011
25	0xbd4b025b	-0.049562793
26	0xbb948dec	-0.00453352
27	0xbcfb3c4c	-0.0306684
28	0x3c838070	0.016052455
29	0xbcd384ee	-0.025820222
30	0x3b01eef4	0.0019826265
31	0x3814575b	3.5367306e-05
32	0xba69f4a7	-0.00089247007
33	0xbc2d7412	-0.010586755
34	0x3b17003b	0.002304091
35	0x3d0d2c8f	0.034466323
36	0xbcb40e81	-0.021979572
37	0xbd056ab4	-0.032572463
38	0xbbf903f3	-0.0075993477
39	0x3aefb11c	0.0018287036
40	0x3beb4e08	0.007180933
41	0xbcf5b550	-0.029993683
42	0x3d16cd35	0.036816794
43	0xbd4df3b1	-0.05028123
44	0xbb367986	-0.002784343
45	0xbc47a40c	-0.012185108
46	0xbd1031ea	-0.03520385
47	0xbcfddc29	-0.03098877
48	0x3c7eb3aa	0.015545765
49	0xbd350ad5	-0.044199783
50	0xbd1a6d1d	-0.037701715
51	0x3d00fce7	0.031491186
52	0x3c1ce9ab	0.009577195
53	0xbb9e00fc	-0.0048218947
54	0xbd742dac	-0.05961387
55	0xbb358290	-0.002769623
56	0xbb52ad35	-0.0032146696
57	0xbd585464	-0.052814856
58	0x3c5e92f3	0.01358484
59	0xbd03addb	-0.032148223
60	0x39831fcd	0.0002500996
61	0x3cf773a7	0.030206515
62	0xbcddd478	-0.027078852
63	0x3c6c7022	0.014431031
64	0x3caab951	0.020840319
65	0xbc689a82	-0.014196994
66	0x3c9ddc0e	0.01926997
67	0x3c834956	0.01602618
68	0xbc384a44	-0.011248175
69	0xbd0c7b28	-0.03429714
70	0xbd4462e2	-0.047945864
71	0x3ce14d5f	0.027502714
72	0xbaf9180a	-0.0019004357
73	0xbd427dec	-0.04748337
74	0x3d0efe63	0.03491057
75	0xbc3dc47e	-0.011582492
76	0xbcbdcb73	-0.023168301
77	0xbd5005c2	-0.05078674
78	0xbc4601fd	-0.012085435
79	0xbcdfb42e	-0.027307596
80	0xbd283e92	-0.041075297
81	0xbcb17d98	-0.021666333
82	0x3b8ebf5e	0.004356309
83	0xbce66cb1	-0.028128
84	0xbd395d63	-0.045255076
85	0xbc8c34e7	-0.01711507
86	0xbcc647ea	-0.024204213
87	0xbaffe09f	-0.0019521898
88	0x3cc8c449	0.024507659
89	0x3c306bb4	0.010767866
90	0xbd2a6dbf	-0.04160857
91	0xbd0c7d26	-0.03429904
92	0x3bdd7c0d	0.006759173
93	0x3cca8712	0.02472261
94	0xbd28ce4a	-0.041212358
95	0x3c3877fb	0.011259074
96	0xbbefd80d	-0.0073194564
97	0xbd731836	-0.05934926
98	0xbd23b7fd	-0.039970387
99	0x3d06d90d	0.03292184
100	0xbbef0b7a	-0.0072950693
101	0xbb24efe9	-0.0025167412
102	0x3d1a8d03	0.037732136
103	0xbcb3067a	-0.021853674
104	0xbd1d3f65	-0.038390536
105	0xbc6c8b51	-0.0144375125
106	0xbd21a12a	-0.03946034
107	0xbb0b6f47	-0.0021276043
108	0xbc7cf9f7	-0.015440456
109	0xbc8b215b	-0.016983679
110	0xbca7daca	-0.020490069
111	0xbc524820	-0.012834579
112	0x3d02a21a	0.031892873
113	0x3bc94936	0.0061427606
114	0x3ad2cfd1	0.0016083663
115	0xbc96d6c1	-0.01841295
116	0x3c3595d3	0.011083084
117	0xbceef630	-0.029170126
118	0xbbfbb933	-0.0076819896
119	0xbd12a305	-0.0358
120	0xbd172ae0	-0.036906123
121	0x3d19ced4	0.037550762
122	0xbb8f12fa	-0.004366276
123	0xbd150618	-0.036382765
124	0xbc6c89be	-0.014437137
125	0x3cb389e8	0.021916345
126	0x3d17347c	0.036915287
127	0x3cb0c990	0.021580487
128	0xbd4c84fc	-0.04993151
129	0x3c86e630	0.016467184
130	0xbc076fbd	-0.008266387
131	0x3d06d8ee	0.032921724
132	0xbd167f53	-0.03674252
133	0x3c471f54	0.012153465
134	0xbbc96b0a	-0.0061467933
135	0xbc359efa	-0.011085266
136	0xbcd8a1c6	-0.026444327
137	0xbc20d162	-0.009815546
138	0x3d2a7b99	0.04162178
139	0x3bc24e4d	0.0059297443
140	0xbcc8471f	-0.024447976
141	0xbcaaa160	-0.020828903
142	0x3c8d834f	0.017274527
143	0xbcf2223a	-0.029557336
144	0xbd16290d	-0.036660243
145	0x3be4f411	0.006987103
146	0xbd4612dd	-0.048357833
147	0xbd3cbb70	-0.04607719
148	0xbd4b8a48	-0.049692422
149	0xbd08d9a9	-0.033410702
150	0xbbab8f1c	-0.005235566
151	0xbcef0074	-0.02917502
152	0xbd2040c4	-0.039124265
153	0xbd331aa5	-0.043726582
154	0x3c864e75	0.016394833
155	0xbaca7daf	-0.0015448834
156	0xbd112fee	-0.0354461
157	0xbcd3ad5b	-0.025839498
158	0xbca07aac	-0.019589745
159	0xbcea7f0e	-0.028625038
160	0xbb35a555	-0.0027716954
161	0xbceed6a1	-0.029155077
162	0xbc2c651b	-0.010522152
163	0x3c512ef7	0.012767545
164	0x3d054524	0.03253664
165	0xb98a18e4	-0.00026339956
166	0xbd214218	-0.039369673
167	0x3d02747c	0.03184937
168	0xbc44a427	-0.012002028
169	0xbcdac582	-0.026705507
170	0xbd10fd0e	-0.03539758
171	0xbd2fda55	-0.042932827
172	0x3c661423	0.014042887
173	0xbd1051fe	-0.035234444
174	0x3c278c4f	0.010226323
175	0x3ce91ba4	0.028455563
176	0xbd1da2ee	-0.03848546
177	0xbc0d4deb	-0.008624534
178	0x3cd20fe3	0.025642341
179	0xbcff9a55	-0.031201521
180	0xbb054f57	-0.002034148
181	0xbc8f686e	-0.01750585
182	0xbb2a5d7c	-0.0025995662
183	0xbc6973e6	-0.014248824
184	0xbd18a594	-0.037267283
185	0x3aa68cb6	0.001270673
186	0xbcd1a281	-0.025590183
187	0xbc6e849b	-0.014557983
188	0xbc5ead89	-0.013591179
189	0x3c56de6c	0.013114553
190	0x3aa8aea8	0.0012869434
191	0x3cf1e9cb	0.029530426
192	0x3cd48a36	0.02594481
193	0x3d04de08	0.032438308
194	0xbc396d23	-0.011317524
195	0x3d05b36f	0.032641824
196	0xbb8fea5c	-0.0043919515
197	0x3c4fe513	0.012688893
198	0xbbc450ee	-0.005991093
199	0xbd1ce5b0	-0.038304985
200	0xbc0613e3	-0.008183452
201	0xbc5585ba	-0.013032371
202	0xbd426f83	-0.047469627
203	0x3b3f73bb	0.0029213268
204	0xbc8091ae	-0.015694465
205	0x3bdabd13	0.0066753714
206	0x39debbb0	0.00042482978
207	0x3cd0fdf2	0.025511716
208	0x3d147a20	0.03624928
209	0x3cad2b75	0.021138886
210	0xbcfd2dfa	-0.030905712
211	0xbc88e4e3	-0.016710704
212	0xbc8dd95d	-0.017315561
213	0x3d28e52c	0.04123418
214	0xbd5c6d01	-0.05381489
215	0xbd15661a	-0.036474325
216	0xbcf08448	-0.029359952
217	0x3b3fccc9	0.0029266349
218	0x3d06ee32	0.032942005
219	0xbd12b7b9	-0.035819743
220	0x3cc5fcb0	0.024168342
221	0x3cb640c6	0.022247683
222	0xbcefc400	-0.029268265
223	0xbcdbd715	-0.026835958
224	0xba397e76	-0.0007076034
225	0xbbf70a15	-0.0075390437
226	0xbb13b3de	-0.002253763
227	0xbd1136f4	-0.035452798
228	0xbd191154	-0.03737004
229	0xbd1a01b9	-0.0375993
230	0xbc6fe02a	-0.014640847
231	0xbd181088	-0.03712514
232	0x3bffb1ef	0.0078031938
233	0x3cd18fa4	0.025581188
234	0x3c4efea9	0.012633958
235	0xbacfe73e	-0.0015861762
236	0xbd3a3509	-0.045460735
237	0xbca5efac	-0.020255886
238	0xbd4eedf6	-0.050519906
239	0xbc47f63e	-0.012204705
240	0x3c1ed484	0.009694222
241	0x3bc40d1b	0.0059830076
242	0x3cf213cb	0.029550454
243	0x3d00e979	0.031472657
244	0xbc31c18a	-0.010849366
245	0xbc95ff2b	-0.01831015
246	0xbcb8b342	-0.022546414
247	0xbcc40455	-0.023927847
248	0xbcfdc15f	-0.030975996
249	0xbba29db8	-0.004962649
250	0x3c602182	0.013679864
251	0xbd4a913a	-0.049454905
252	0x3c784dc3	0.015155259
253	0xba97af71	-0.0011572671
254	0x3cf93311	0.030419858
255	0xbc753f31	-0.014968679

bias f4 [256]
0	0xbcba5b50	-0.02274862
1	0x402daaeb	2.713557
2	0x40050a19	2.0787413
3	0x402ed786	2.7319045
4	0x402d2c14	2.7058153
5	0x402d7289	2.7101157
6	0x3f83205a	1.0244248
7	0xbceec6e2	-0.02914757
8	0x3f6afbe5	0.9179061
9	0x402de586	2.717134
10	0xbd4db648	-0.050222665
11	0x3fa0498f	1.2522448
12	0x4036268b	2.8461025
13	0xbb8aa25a	-0.0042307796
14	0x3cf9bcce	0.030485537
15	0x3ec29c72	0.38009983
16	0xbc3dc799	-0.011583232
17	0x402a2fb4	2.6591616
18	0x40318424	2.7736902
19	0x4031f74d	2.780719
20	0x402f514c	2.739337
21	0x402d62ec	2.7091627
22	0x402eb370	2.729702
23	0xbcfa2b8f	-0.030538348
24	0x400f05ca	2.2347283
25	0x402be7d4	2.6860247
26	0x3c73fe03	0.014892104
27	0x40312f46	2.7685103
28	0x40353d59	2.8318694
29	0x402ae222	2.670052
30	0xbc808d36	-0.015692335
31	0x402f6f44	2.741166
32	0xbc64e0c8	-0.013969608
33	0x3d1330f8	0.035935372
34	0xbd5f0615	-0.05444916
35	0x402f50fb	2.7393177
36	0xb9385d62	-0.00017582395
37	0x402c4d9d	2.6922371
38	0x402f4e49	2.7391531
39	0x402e6a1c	2.7252264
40	0x402ece65	2.7313473
41	0x4020cf87	2.5126665
42	0x402e6ecc	2.7255125
43	0xbae7c52e	-0.0017682665
44	0xbd09436c	-0.033511564
45	0x402fe274	2.7481966
46	0xbc86922f	-0.016427128
47	0x401d0b56	2.453817
48	0x403405a4	2.8128443
49	0x4031b264	2.776513
50	0xbd031cc7	-0.032009866
51	0x3d0af640	0.03392625
52	0x40090fbc	2.1415854
53	0x402d58ca	2.7085443
54	0x402c14fc	2.6887808
55	0x402d6aca	2.709643
56	0xbca4f283	-0.02013517
57	0x3c54c61c	0.012986686
58	0x40143ce2	2.316216
59	0x3a53e895	0.00080836687
60	0x3cda9144	0.026680596
61	0x402cb7a6	2.698709
62	0x3c808fa2	0.01569349
63	0x402b5fab	2.677714
64	0x40330a0f	2.797489
65	0xbcb81aa2	-0.022473637
66	0x402eb17b	2.7295825
67	0xbce14c63	-0.027502244
68	0xbc48d6bb	-0.012258227
69	0x3d00c738	0.03143999
70	0x402c7a80	2.6949768
71	0x402afec6	2.6718001
72	0x402e08d1	2.719288
73	0x40344791	2.816868
74	0x3c67cd61	0.014148087
75	0x3e69ffcb	0.22851484
76	0x3fea8b42	1.8323748
77	0x402b014c	2.6719542
78	0x404b45c2	3.1761327
79	0x402fe6a3	2.748452
80	0x402e00bd	2.718795
81	0x402bfebd	2.687423
82	0x3cc6108b	0.02417781
83	0x4004ece1	2.076958
84	0x402d7465	2.7102292
85	0xbd015af0	-0.031580865
86	0x402c2250	2.6895943
87	0xbccf9987	-0.025341762
88	0xbbefeddb	-0.0073220558
89	0x3f954cb3	1.1664032
90	0x402e596a	2.7242074
91	0xbc94d3e0	-0.018167436
92	0x3de383c2	0.11109115
93	0xbac9a6ef	-0.0015384833
94	0xbf3c1a1d	-0.73477346
95	0x3c92d4ce	0.017923739
96	0x3d15d531	0.03658027
97	0x402f1953	2.7359207
98	0x402c7ab1	2.6949885
99	0x4032a360	2.7912216
100	0x3b7a4935	0.0038190607
101	0xbd464a86	-0.048410915
102	0xbc40b7f2	-0.011762606
103	0xbbbff0ae	-0.0058575487
104	0x402db846	2.7143722
105	0x402fcce7	2.7468812
106	0xbce79278	-0.028268084
107	0x3c2cfebe	0.010558782
108	0x40278c69	2.617945
109	0x401e20cf	2.4707525
110	0x40047a8c	2.0699797
111	0x3b8d2001	0.0043067937
112	0x4003ecfd	2.0613396
113	0x3c2c3ddd	0.010512796
114	0x3d10cd64	0.035352126
115	0xbd578563	-0.052617442
116	0x3fad80ab	1.3554891
117	0x402eb800	2.7299805
118	0x402ebad3	2.7301528
119	0x402c7a56	2.6949668
120	0x403071f4	2.7569551
121	0xbd107d25	-0.035275597
122	0x40359831	2.837414
123	0xbf2e827f	-0.6816787
124	0x402f0247	2.734514
125	0x402d5db6	2.7088447
126	0x3e7df38f	0.24799941
127	0x3fff4d0a	1.9945385
128	0x402a7e35	2.663953
129	0xbce51301	-0.027963163
130	0xbd5b51a6	-0.053544663
131	0x4033c704	2.809022
132	0xbc036743	-0.008020225
133	0xbf2bab04	-0.67057824
134	0x402c1101	2.6885378
135	0x3cf9b4fa	0.030481804
136	0x4031d944	2.7788858
137	0x402c52b8	2.6925488
138	0x402c2d65	2.6902707
139	0x4022498f	2.5357397
140	0x3cb9cc09	0.0226803
141	0xbd6163d1	-0.055026833
142	0x402da963	2.7134635
143	0x3fb22702	1.3918154
144	0x3c088be3	0.008334133
145	0x4030c4d7	2.7620142
146	0xbd53c07c	-0.05169724
147	0x3aa72883	0.0012753162
148	0xbd19938c	-0.037494227
149	0x402d9aba	2.7125688
150	0xbd1bf8a1	-0.038078908
151	0x402c47a5	2.6918728
152	0x401f95ed	2.4935257
153	0xbd076a07	-0.0330601
154	0x3d079302	0.033099182
155	0x3d1f285e	0.038856857
156	0x3f91f402	1.140259
157	0xbc8c8ea7	-0.017157866
158	0xbd1b4ffe	-0.037918083
159	0x4026895c	2.6021338
160	0xbf2bc406	-0.67095983
161	0x402d3cde	2.70684
162	0x3c4678c3	0.012113753
163	0xbbde0105	-0.006775024
164	0xbd4c57b3	-0.049888324
165	0xbb8065f5	-0.003918404
166	0xbd0d9e7c	-0.03457497
167	0x3cccc92f	0.024998276
168	0x3c531e47	0.012885637
169	0x3f25ec57	0.6481375
170	0x402ec740	2.7309113
171	0x3d78ae37	0.06071302
172	0xbc80ff94	-0.01574687
173	0x402decdf	2.7175825
174	0x4010b336	2.2609382
175	0x402a6b04	2.6627817
176	0x402e046b	2.7190197
177	0x402eab01	2.7291873
178	0x3ce36db3	0.02776227
179	0x3d18f91c	0.037346944
180	0x403089ed	2.7584183
181	0x402ef116	2.7334647
182	0x402ce790	2.7016335
183	0x402e72ad	2.7257493
184	0x4045e0c2	3.0918431
185	0xbc8dc0d3	-0.01730386
186	0xbd6dae5e	-0.058027618
187	0x402c68e4	2.693902
188	0x402a3c23	2.6599205
189	0x402b66e1	2.6781542
190	0x402fc240	2.746231
191	0xbcb7c805	-0.022434244
192	0xbd14ea0b	-0.036356013
193	0xbe9b751a	-0.3036278
194	0x4030de08	2.7635517
195	0x3be1b116	0.0068875654
196	0x4025094b	2.5786922
197	0x402c7555	2.6946614
198	0x3cbd881c	0.023136191
199	0xbd59dcf3	-0.05318923
200	0x402aa418	2.6662655
201	0x403377dc	2.8041906
202	0x402d67e2	2.7094655
203	0x403100ac	2.765666
204	0x403275f4	2.7884493
205	0x402d9489	2.7121909
206	0x3b8d2b78	0.0043081604
207	0x3c66b284	0.014080647
208	0xbb8b868a	-0.0042579817
209	0xbd4d0d50	-0.050061524
210	0x402cc530	2.6995354
211	0x402b97da	2.6811433
212	0x402f50b6	2.7393012
213	0x4026280f	2.596195
214	0x3f8e90c4	1.1137929
215	0x40466fec	3.1005812
216	0xbcef26da	-0.02919333
217	0x402fc7e6	2.7465758
218	0x402d1ac6	2.7047591
219	0xbc3f93a1	-0.011692912
220	0xbd3917de	-0.045188777
221	0xbd096a99	-0.033548925
222	0x40472647	3.1117113
223	0x402b07b3	2.672345
224	0x401ad5e5	2.419305
225	0x402d8140	2.7110138
226	0x3fa1a6ef	1.2629069
227	0x402b4309	2.6759665
228	0x402fc576	2.746427
229	0x402db066	2.7138915
230	0x3f8f4f17	1.1196011
231	0xbd53c662	-0.051702864
232	0xbcfac6f4	-0.030612446
233	0xbca05763	-0.01957292
234	0x402c87a1	2.6957781
235	0xbf27af9d	-0.6550234
236	0x402aeefa	2.670836
237	0x3c338b77	0.010958544
238	0x402de601	2.7171633
239	0x3cc34304	0.023835666
240	0x402e986c	2.728053
241	0x402ddf22	2.716744
242	0x402f6e6b	2.7411144
243	0x40004a26	2.0045257
244	0x40305286	2.7550368
245	0x40270992	2.6099591
246	0xbd289f0b	-0.0411673
247	0x402d258d	2.705417
248	0xbe16043d	-0.14650054
249	0x402d7113	2.7100265
250	0xbd07f68f	-0.03319412
251	0x402ac69d	2.6683724
252	0xbd0b3350	-0.033984482
253	0x402ca220	2.6973953
254	0x4047dba8	3.1227818
255	0xbc002e84	-0.00782359

weight f4 [1, 256]
0	0xbd6872a5	-0.05674996
1	0x402e7129	2.7256567
2	0x3fd117ea	1.6335423
3	0x402b3813	2.6752975
4	0x403e3596	2.9720206
5	0x401f536b	2.4894664
6	0x3f91820d	1.1367813
7	0xbadf38f9	-0.0017030529
8	0x3f87155b	1.0553392
9	0x4020f254	2.5147905
10	0xbd1cbd6d	-0.038266588
11	0x3faaab4c	1.3333526
12	0x40491810	3.1420937
13	0xbcdd219e	-0.026993569
14	0xbd0e9831	-0.03481311
15	0x3f63b2aa	0.88944495
16	0xbc6a7061	-0.01430902
17	0x4041dc6b	3.0290782
18	0x4047830b	3.1173732
19	0x4046de7c	3.1073294
20	0x402ad760	2.6693954
21	0x40236ab6	2.553388
22	0x4027b8e1	2.620659
23	0xbd07ba75	-0.033136804
24	0x3fbac5d2	1.459162
25	0x401fe7e9	2.4985297
26	0xbd4d10d8	-0.05006489
27	0x404a11e9	3.1573431
28	0x4047890b	3.1177394
29	0x40211db9	2.5174391
30	0xbd53f6e1	-0.051749114
31	0x4047ac8e	3.119907
32	0x3c34ba4b	0.011030744
33	0x3ac0b321	0.0014701822
34	0xbb60fe02	-0.0034331088
35	0x40183296	2.3780875
36	0x3cbaf1fa	0.022820462
37	0x401b4c01	2.426514
38	0x4020d8f3	2.5132415
39	0x40305552	2.7552075
40	0x4022c544	2.5432901
41	0x3fc487f7	1.5353993
42	0x401fec6d	2.4988053
43	0xbccb3a35	-0.024808029
44	0x3cc0571b	0.023479035
45	0x4029d7ff	2.6538084
46	0xbd5e264b	-0.054235738
47	0x3fcee788	1.6164408
48	0x4045aefe	3.0888057
49	0x3fd2a77a	1.645736
50	0xbd0a2db1	-0.03373498
51	0x3d1ae279	0.037813637
52	0x40173117	2.3623712
53	0x402882a8	2.6329746
54	0x40451efa	3.0800157
55	0x40332204	2.7989511
56	0x3d613bb7	0.05498859
57	0xbb52c602	-0.003216148
58	0x3fbd8afd	1.4808041
59	0xbc585970	-0.013204917
60	0x3f84fe58	1.039012
61	0x4031261c	2.767951
62	0xbc585e94	-0.013206143
63	0x4030f6a0	2.7650528
64	0x4046bf53	3.1054275
65	0xbd2ab910	-0.041680396
66	0x4048a473	3.1350372
67	0xbd00d2f9	-0.0314512
68	0x3a024f45	0.00049709185
69	0xbc822be6	-0.015890073
70	0x40270331	2.6095698
71	0x4021298c	2.5181608
72	0x4020ac2d	2.5105088
73	0x4048c0dc	3.1367712
74	0xbbc8c138	-0.006126549
75	0x3f63e947	0.8902783
76	0x401bfd4a	2.4373345
77	0x4041bace	3.0270267
78	0x3fe15521	1.7604104
79	0x401c9161	2.4463732
80	0x40217632	2.522839
81	0x4026c73f	2.605911
82	0xbca99103	-0.02069903
83	0x3fd1b996	1.6384761
84	0x4022d02c	2.5439558
85	0xbd36b1cd	-0.044603158
86	0x40268dfe	2.6024165
87	0x3cfe0faa	0.031013329
88	0xbc7f9b55	-0.015600999
89	0x3fa08694	1.254107
90	0x4040a48e	3.0100436
91	0xbc864511	-0.016390355
92	0x3e457d8e	0.19286177
93	0xbc51382a	-0.012769738
94	0x3e25cb14	0.1619075
95	0xbd55a244	-0.0521567
96	0xbd6bd1be	-0.057573073
97	0x402012a1	2.501137
98	0x402c90de	2.696342
99	0x4048df08	3.1386127
100	0xbba5dc7d	-0.0050616846
101	0x3b469d6d	0.0030306235
102	0xbca81afa	-0.020520676
103	0xbd4d9b49	-0.05019692
104	0x4040d925	3.0132535
105	0x4027886a	2.617701
106	0xbd486ef8	-0.048933953
107	0xbd49f5a2	-0.04930652
108	0x40404a18	3.0045223
109	0x3fcd8d60	1.6058769
110	0x3fb1da68	1.3894777
111	0xbbc05557	-0.0058695483
112	0x3fd1622a	1.6358082
113	0xbcfa354a	-0.030542988
114	0xbd15ef00	-0.03660488
115	0xbc364a20	-0.011126071
116	0x3fbbf5a9	1.4684345
117	0x40216e1d	2.5223458
118	0x401d55db	2.4583652
119	0x4023a7ea	2.5571237
120	0x4046a174	3.1036043
121	0xbcfb1f79	-0.030654656
122	0x4048e7b4	3.139142
123	0x3e77613a	0.24158183
124	0x3fd925a4	1.6964612
125	0x402ea35e	2.7287211
126	0x3f9403fe	1.1563718
127	0x3ff58d24	1.9183698
128	0x4026187f	2.5952451
129	0x3cda2565	0.02662916
130	0xbcd9b795	-0.026576797
131	0x40458b4b	3.0866268
132	0xbc9eab3a	-0.019368757
133	0x3e4d6c9e	0.20060965
134	0x402af2a8	2.6710606
135	0x3a6c66eb	0.00090180215
136	0x4047db64	3.1227655
137	0x402b1ca9	2.6736243
138	0x402911ec	2.6417189
139	0x3fe6a877	1.8020161
140	0xbcec6934	-0.028858759
141	0xbbac2ab7	-0.0052541154
142	0x403148b1	2.7700617
143	0x3fc2eed3	1.5229133
144	0xbc9e3375	-0.019311646
145	0x40465362	3.0988393
146	0xbd2e5845	-0.04256465
147	0x3cb9b255	0.022668043
148	0x3d218bba	0.039439894
149	0x401e1ca8	2.470499
150	0xbb1001d2	-0.0021973741
151	0x401ddc8a	2.4665856
152	0x3fcbe4aa	1.5929158
153	0xbd39b804	-0.045341507
154	0xbd10a968	-0.03531781
155	0xba293e5a	-0.00064561295
156	0x3f989038	1.1919012
157	0x3d605e43	0.054777395
158	0xbc910810	-0.01770404
159	0x40433b53	3.0504959
160	0x3e7a535d	0.24445863
161	0x4040f93f	3.0152128
162	0xbcfc3f5a	-0.030791927
163	0x3cf26fc1	0.029594304
164	0xbccdce4a	-0.02512278
165	0xbbf581cb	-0.007492279
166	0x3bb269ef	0.005444757
167	0xbcad3df4	-0.021147706
168	0xbcfaf3d0	-0.030633837
169	0x3f37c7fa	0.71789515
170	0x401cbd20	2.4490433
171	0x3f7d6b14	0.98991513
172	0xbc23f1da	-0.010006392
173	0x402cce8c	2.7001066
174	0x3ffd6ff1	1.9799787
175	0x4041b9f2	3.0269742
176	0x4031a153	2.7754714
177	0x402fac89	2.7449057
178	0x3babf6bb	0.0052479184
179	0xbd5861d3	-0.052827667
180	0x4047b749	3.1205618
181	0x40217455	2.5227253
182	0x402c32a6	2.6905913
183	0x403b8adb	2.93035
184	0x3fdfd833	1.7487854
185	0xbc03ad1b	-0.008036877
186	0xbca28029	-0.019836502
187	0x401f2aee	2.4869952
188	0x4027f013	2.624028
189	0x40273776	2.61276
190	0x40323a26	2.784799
191	0xbd0cef83	-0.034408104
192	0x3b4bd88d	0.0031104416
193	0x3f05d04e	0.5227097
194	0x40498565	3.1487668
195	0xbca4bd42	-0.020109776
196	0x3fdf0f84	1.742661
197	0x4026d264	2.6065912
198	0x3c3825fd	0.011239526
199	0xbd183a2c	-0.037164852
200	0x4043ab3a	3.0573258
201	0x404aa71e	3.16645
202	0x401da722	2.463326
203	0x40484f26	3.1298308
204	0x404a64d3	3.1624038
205	0x40267a79	2.6012251
206	0xbd25e843	-0.040504705
207	0xbca831f5	-0.020531634
208	0xbd4e081f	-0.050300714
209	0xbd1ee50e	-0.038792662
210	0x4020daf5	2.513364
211	0x4018ec9c	2.3894415
212	0x401ede76	2.482328
213	0x4039613b	2.8965595
214	0x3faf887a	1.3713524
215	0x3fead793	1.8347038
216	0xbca56325	-0.020188877
217	0x40458ca9	3.0867102
218	0x401e1365	2.4699337
219	0xbcc62e1c	-0.024191909
220	0xbcfa5c50	-0.030561596
221	0x3ce33d2d	0.027739132
222	0x3fdd4a16	1.7288234
223	0x402c2b14	2.6901293
224	0x400ada33	2.1695678
225	0x40267af3	2.6012542
226	0x3faa981d	1.3327671
227	0x40208096	2.5078483
228	0x4045975b	3.087363
229	0x403868d8	2.8813992
230	0x3fbd735d	1.4800831
231	0xbca2a818	-0.019855544
232	0x3c8874be	0.01665723
233	0xbc0d645e	-0.008629886
234	0x403e7445	2.9758465
235	0x3e82a11a	0.25513536
236	0x40212e91	2.5184672
237	0xbce5005c	-0.027954273
238	0x4032f221	2.7960284
239	0xbcb22440	-0.021745801
240	0x4025a9d1	2.5884898
241	0x40426ff1	3.0380824
242	0x4028cade	2.637382
243	0x3fabb82b	1.3415579
244	0x40476229	3.1153662
245	0x4040fa8b	3.015292
246	0xbc53f618	-0.012937091
247	0x40217251	2.5226023
248	0x3f3ba96c	0.7330539
249	0x4028505f	2.6299055
250	0xbd060da8	-0.032727867
251	0x40253375	2.5812657
252	0xba532780	-0.0008054897
253	0x40280798	2.6254635
254	0x3fe91247	1.8208703
255	0xbcc92124	-0.024551935

weight f4 [2, 256]
0	0x3d63cb59	0.05561385
1	0xc000e8a6	-2.0141997
2	0xc01465b0	-2.3187065
3	0xbfec98be	-1.8484113
4	0x3d4080f9	0.046997998
5	0xc0231d7b	-2.5486743
6	0xbf6d7b89	-0.92766625
7	0xbc98223f	-0.018571017
8	0xbf5d6864	-0.8648741
9	0xc026da7d	-2.6070855
10	0x3d086620	0.03330052
11	0xbf853a52	-1.0408423
12	0x3f89743e	1.0738599
13	0x3bc5e63b	0.0060394085
14	0xbd4c50ac	-0.049881622
15	0xbfbabb1c	-1.4588351
16	0x3cd53247	0.02602495
17	0x3f715aec	0.9427936
18	0x3f5a223d	0.85208493
19	0x3f13ba78	0.57706404
20	0xc012457a	-2.2854905
21	0xc01d9559	-2.4622405
22	0xc01b3d3d	-2.4256127
23	0x3da95a55	0.082691826
24	0xc02eeb3a	-2.733107
25	0xc01e31b3	-2.4717834
26	0x3cc7f601	0.024409296
27	0x3f864e66	1.0492675
28	0x3f33edcd	0.7028473
29	0xc01b0c14	-2.4226122
30	0x3bf462a1	0.0074580465
31	0x3f3db490	0.7410364
32	0xbb59c687	-0.0033229904
33	0xbd09df26	-0.033660077
34	0x3ccdcdc7	0.025122536
35	0xc02c3cf6	-2.6912208
36	0x3c886294	0.016648568
37	0xc0287e84	-2.632722
38	0xc01b1342	-2.4230504
39	0xbfece305	-1.8506781
40	0xc01c7329	-2.4445288
41	0xc035d79b	-2.8412845
42	0xc0238310	-2.5548744
43	0x3d6201c0	0.05517745
44	0xbd399efb	-0.04531763
45	0xc00e5951	-2.2242014
46	0x3ad23093	0.0016036205
47	0xc0300170	-2.7500877
48	0x3ef0c5ea	0.47025996
49	0xc0339dfa	-2.8065171
50	0x3d28de3c	0.041227564
51	0xbd51e36d	-0.05124228
52	0xbeb0d51d	-0.34537593
53	0xc011f2fb	-2.2804554
54	0x3f544e42	0.8293191
55	0xbfef8cdf	-1.8714865
56	0xbbed43ed	-0.0072407634
57	0xbcdcec3b	-0.026968112
58	0xc034c961	-2.8247912
59	0xbd1a81ba	-0.037721373
60	0xbfae81a8	-1.3633318
61	0xbfa46f99	-1.2846557
62	0x3bc2f86e	0.0059500253
63	0xbff771fa	-1.9331658
64	0x3f895152	1.0727942
65	0x3a960a6e	0.00114472
66	0x3f55a686	0.8345722
67	0x3d8162dc	0.06317684
68	0xbc259ca8	-0.010108151
69	0xbcff8614	-0.031191863
70	0xc01590fe	-2.3369746
71	0xc0218f62	-2.5243764
72	0xc01f94b0	-2.4934502
73	0x3fa14921	1.2600442
74	0x3c9c4a33	0.01907835
75	0xbfc03f6b	-1.5019354
76	0xbfc1b65c	-1.5133777
77	0x3f45d8d7	0.77283996
78	0xc0360e29	-2.8446143
79	0xc024e28d	-2.5763276
80	0xc0231211	-2.5479777
81	0xc01714c3	-2.3606422
82	0x3d16648d	0.036716986
83	0xc0142338	-2.3146496
84	0xc022bc19	-2.5427306
85	0xbca9c034	-0.020721532
86	0xc0206dce	-2.506702
87	0xbd57aa0c	-0.052652404
88	0x3bed424b	0.0072405688
89	0xbf806002	-1.0029299
90	0xbbe271b7	-0.0069105285
91	0x3c77d60a	0.0151267145
92	0xbe2f30a7	-0.17108403
93	0xbbebd5f5	-0.0071971365
94	0xbfb4bbe3	-1.4119838
95	0xbd3b4cce	-0.045727544
96	0x3cc50839	0.024051772
97	0xc0232755	-2.5492756
98	0xc003f255	-2.0616658
99	0x3f682487	0.90680736
100	0x3d085788	0.0332866
101	0x3c1517d5	0.00909992
102	0x3d7ef885	0.062248725
103	0x3bff1dfb	0.0077855564
104	0x3c3a9e8a	0.011390338
105	0xc0080eb5	-2.1258976
106	0x3cfacc46	0.030614983
107	0x3d8919e1	0.06694389
108	0x3db5eed9	0.08883447
109	0xc0170360	-2.359581
110	0xc02a88c7	-2.6645982
111	0x3d02aa3f	0.03190064
112	0xc0101f6c	-2.2519178
113	0x3ce2f908	0.027706638
114	0xbbba96ef	-0.005694262
115	0x3d113db9	0.035459254
116	0xbf916b8b	-1.1360945
117	0xc01a97c8	-2.415514
118	0xc0258175	-2.5860264
119	0xc01f7ea9	-2.4921057
120	0x3f0c36da	0.54771197
121	0x3d14dfaf	0.036346134
122	0x3f78de2d	0.97214013
123	0xbfb9ef87	-1.4526223
124	0xc022eddd	-2.545768
125	0xc007f270	-2.1241722
126	0xbfa8d58f	-1.3190173
127	0xbfe4762e	-1.7848566
128	0xc020c8e2	-2.512261
129	0x3d62c304	0.055361763
130	0xbd2520a6	-0.04031434
131	0x3fab559e	1.3385503
132	0xbd159ae4	-0.03652467
133	0xbfbbc0cf	-1.4668216
134	0xc01f1fc1	-2.486313
135	0x3c794d0e	0.015216125
136	0x3f6a27ca	0.91466963
137	0xc01e24ef	-2.4710042
138	0xc01bc7bd	-2.434066
139	0xc00abbd1	-2.1677134
140	0x3d2f443e	0.04278969
141	0xbae4a49e	-0.0017444079
142	0xbf992955	-1.1965739
143	0xbf9c844a	-1.2227871
144	0xbc9f0d34	-0.019415475
145	0x3e8035e7	0.25041124
146	0x3d4f78e9	0.05065242
147	0x3be89408	0.007097725
148	0xba82b02a	-0.0009970714
149	0xc024ad8a	-2.573092
150	0x3d1b0123	0.03784288
151	0xc023c55c	-2.5589209
152	0xc0237fa7	-2.5546663
153	0x3cb3093a	0.021854986
154	0x3d3fb325	0.046801705
155	0xbc8e4d8a	-0.017370958
156	0xbf784154	-0.9697468
157	0x3d3ad277	0.04561087
158	0x3d128c7c	0.035778508
159	0x3e97b75d	0.29632083
160	0xbfbdab92	-1.4817984
161	0x3e07bd13	0.1325572
162	0x3d8a516a	0.0675381
163	0xbc8d1cc9	-0.01722564
164	0xbd09cd00	-0.03364277
165	0xbc9cc989	-0.019139068
166	0x3d619b87	0.055079963
167	0x3d7945e9	0.060857687
168	0x3c3419fd	0.010992524
169	0xbf0784b4	-0.52936864
170	0xc0220c1d	-2.5319893
171	0xbfab87cb	-1.3400816
172	0x3c875f73	0.016525006
173	0xc0159a37	-2.3375375
174	0xc00644ae	-2.0979419
175	0x3f7c09cd	0.98452455
176	0xbfc2d105	-1.5220038
177	0xbffcbf27	-1.9745835
178	0x3ca01246	0.019539963
179	0xbc23b81e	-0.009992627
180	0x3f837634	1.0270448
181	0xc023ac12	-2.5573773
182	0xbfd83f3c	-1.6894298
183	0x3e645807	0.22299205
184	0xc0302ff5	-2.752927
185	0x3cfd46a5	0.030917475
186	0x3d4d03ac	0.05005233
187	0xc0264255	-2.5977986
188	0xc022351d	-2.5344918
189	0xc013967c	-2.3060598
190	0xbfe05142	-1.7524798
191	0x3be52af3	0.0069936453
192	0x3c285a7e	0.010275481
193	0xbfa72a43	-1.3059772
194	0x3f9de004	1.2333989
195	0xbcc49f8c	-0.02400186
196	0xc00e2e86	-2.2215896
197	0xc0152441	-2.3303378
198	0x3d60c3c6	0.054874204
199	0x3ca023d8	0.019548342
200	0x3f0a5c5e	0.5404719
201	0x3f485a62	0.78262913
202	0xc024c020	-2.5742264
203	0x3f57b64b	0.8426253
204	0x3f85e415	1.046023
205	0xc02481fb	-2.5704334
206	0xbb9f7a33	-0.004866862
207	0x3d5a96ea	0.05336658
208	0xbd29df34	-0.04147263
209	0xbc8a8b50	-0.016912133
210	0xc024f965	-2.5777218
211	0xc02c029e	-2.6876597
212	0xc025b3b8	-2.5890942
213	0x3f32b6b4	0.6981003
214	0xbfa8725c	-1.31599
215	0xc025194e	-2.5796695
216	0xbd372af5	-0.0447187
217	0x3f07d75d	0.53062993
218	0xc0265d30	-2.5994377
219	0x3c557f37	0.013030819
220	0xbd5e1dbe	-0.054227583
221	0xbd3cc02e	-0.046081714
222	0xc0373850	-2.862812
223	0xbff705d8	-1.9298658
224	0xc00facdf	-2.2449262
225	0xc019bd86	-2.4021926
226	0xbf8e702f	-1.1127986
227	0xc01bd956	-2.4351401
228	0x3f23f313	0.64042777
229	0xbf473314	-0.77812314
230	0xbfb201d2	-1.3906806
231	0xbbbe9ae4	-0.0058168042
232	0x3cc60be0	0.024175584
233	0xbb0c0e8b	-0.0021370973
234	0x3da86195	0.08221737
235	0xbfacc149	-1.3496486
236	0xc01d8f76	-2.4618812
237	0xbd449e52	-0.04800255
238	0xbfd3006e	-1.6484506
239	0x3b9c778c	0.0047749933
240	0xc01aea21	-2.42054
241	0x3e9cdf04	0.30638897
242	0xc010441b	-2.2541568
243	0xc02c336b	-2.6906383
244	0x3f2b73b7	0.6697344
245	0x3e5d015c	0.2158255
246	0xbc35e5db	-0.011102165
247	0xc021b545	-2.5266888
248	0xbfa8337a	-1.3140709
249	0xc00c6d01	-2.194153
250	0x3cda6c97	0.026663108
251	0xc01c9ac8	-2.446947
252	0xbc12d5f0	-0.0089621395
253	0xc01fafc0	-2.495102
254	0xc0277116	-2.6162772
255	0xbd56c7d4	-0.052436665

bias f4 [2]
0	0xbd0f67cc	-0.035011098
1	0xbd0285bb	-0.031865817
