torch_prj/DuelingDQN/models/dueling_dqn_net.pt (torch, 684165 bytes, 9 tensors)

weight f4 [512, 4]
000000 cc 90 25 3f 95 42 c7 be d3 7c 0d 3e fb fb d5 be
       0.6467407 -0.38917986 0.13817148 -0.41793808
000010 34 62 14 3f 01 33 0a bf ba 0c 92 be 2f 92 97 be
       0.57962346 -0.53984076 -0.28525335 -0.29603717
000020 fa 63 0b 3f 34 37 ef 3a 91 c5 61 be 60 26 e9 3d
       0.5444943 0.0018250705 -0.22048022 0.113842726
000030 c1 55 77 3e 49 5f 63 bd 1c 66 45 3f 20 91 00 be
       0.24153806 -0.055510793 0.7710893 -0.12555361
000040 ee 53 ca be 38 ba 84 be c8 c3 27 3f a8 4e 6d 3d
       -0.39517158 -0.25923324 0.65533113 0.05793634
000050 54 67 aa be 60 ce 05 be 92 15 5e be 29 e3 de be
       -0.33281958 -0.13067007 -0.21687916 -0.43532684
000060 83 8b b2 3e 12 59 62 be 0f 5e 06 bf 7d ea c4 3d
       0.34872064 -0.2210429 -0.5248727 0.096150376
000070 36 78 af 3d 3b 50 20 3e a6 54 91 3e 40 4d cb be
       0.0856785 0.15655605 0.28384894 -0.39707375
000080 fd ac 1f 3f 10 6e 8c be e6 58 24 bf ea cd 80 be
       0.62373334 -0.2742772 -0.6419815 -0.251571
000090 fa 06 2c bf fd 02 a3 3d 61 63 49 bd 8f 57 ef 3d
       -0.67198145 0.07959554 -0.04916704 0.11686622
0000a0 53 e6 8b 3e 3a f9 b7 be 17 7c c3 3e 89 c5 9e 3e
       0.2732416 -0.35932332 0.3818061 0.31010082
0000b0 e4 5d 86 be 0a e4 a7 bd d6 15 17 bf 85 be 04 bf
       -0.26243508 -0.08197792 -0.59017694 -0.5185321
0000c0 6d 2a ba bd 04 50 fd 3d 2a c9 25 3f 58 89 2f 3e
       -0.09090123 0.123687774 0.64760077 0.17142236
0000d0 f8 e9 0e 3f c6 0b e2 bc bf 0c 61 bf 64 b8 2a be
       0.5582576 -0.027593505 -0.87910074 -0.16671902
0000e0 01 45 d4 3e 36 8d dd 3e 43 95 f6 be 1b 3d da be
       0.41458896 0.43271798 -0.48160753 -0.42624745
0000f0 f8 1d 65 3e 20 bb 3f be d0 0d 8b bd 88 6b b4 bd
       0.22374713 -0.18723726 -0.06789744 -0.088095725
000100 da fa cf 3e ff 81 46 3e ec 35 3d bf ea 96 a3 be
       0.40621072 0.19385527 -0.73910403 -0.31951076
000110 f7 a4 a6 3e f5 b0 11 3e 10 58 83 3c e3 36 b4 be
       0.32547733 0.1422766 0.016033202 -0.35198125
000120 af ba a6 be 23 bb ca 3e 41 11 4b be 8c 57 5b 3c
       -0.32564303 0.395959 -0.198308 0.013387572
000130 32 fd c9 3e 89 28 a0 3d d2 ee 4b bf 4e 70 90 bb
       0.39450985 0.078202315 -0.79661286 -0.004407919
000140 e5 95 32 be c1 ad 1d 3e b8 93 94 be 8f e1 dd bd
       -0.17439993 0.15398313 -0.2901895 -0.108340375
000150 de 49 32 3d 04 28 4a be 48 d0 08 bf 4f 66 ad be
       0.043527476 -0.19741827 -0.5344281 -0.33867118
000160 ac d0 6a be 66 0e 75 3e f5 a1 9e 3e 2a ca ea 3d
       -0.22931165 0.23931274 0.30982938 0.11464341
000170 4a fb 9f be b5 53 b4 be 0e ec 26 bf 2f 0f 16 bd
       -0.31246406 -0.35220113 -0.6520394 -0.036635574
000180 ef ef 9f 3e 73 92 94 be 2e 25 55 bf ec 3d 5e be
       0.31237742 -0.29017982 -0.83259857 -0.21703309
000190 dd 73 a5 3d 78 e3 f5 3e 62 d2 2b bc 5e 86 bb 3e
       0.0807874 0.48025107 -0.010487171 0.36625952
0001a0 a7 5d c0 be 82 74 e7 3d 1b 4a 15 3f 51 c6 50 3a
       -0.3757145 0.11301519 0.583162 0.0007964122
0001b0 04 19 a9 3d fa d3 4c 3e 6b a9 db be 9a 2f 54 be
       0.082567245 0.20002738 -0.42902693 -0.20721284
0001c0 31 58 8a 3e fe b0 96 3b 14 08 4d bf 63 ed a5 be
       0.2702041 0.004598736 -0.8009045 -0.32407674
0001d0 bf 46 db 3d fc 8a 86 bd fc cf 2e 3e dc 92 a6 3e
       0.10706853 -0.06569478 0.17071527 0.3253392
0001e0 51 c8 86 3e 30 48 02 bf 93 95 35 bf ed db 7d be
       0.26324704 -0.508914 -0.7093136 -0.24790926
0001f0 a6 68 cd be 04 e4 f2 bd 8b 8f 0d 3f 70 a4 84 3e
       -0.40118903 -0.11859897 0.55297154 0.25906706
000200 34 bf eb be 2c ae 50 be 4c ff b6 3e 95 ac f6 be
       -0.46044314 -0.20378941 0.3574165 -0.48178545
000210 ad 47 ef 3d 1f 5f 6b 3e 3f 8d 72 3e 1f be 2e 3e
       0.11683593 0.22985505 0.23686694 0.17064713
000220 bb 34 84 be f1 8d ae be c2 3d 13 3d 43 85 4e 3c
       -0.2582148 -0.34092668 0.03594757 0.012605014
000230 59 79 12 bf fe 78 0f bf b1 13 a2 bd a1 20 a3 be
       -0.5721641 -0.56043994 -0.07913912 -0.3186083
000240 54 3f bc 3e 84 25 ad bc e8 92 0d bf 32 88 c2 bd
       0.36767066 -0.021136053 -0.55302286 -0.094986334
000250 c8 3a 0e be ec 04 04 3f c3 9e d8 3e ca 12 f9 3d
       -0.13889611 0.5157001 0.42308626 0.12161787
000260 fc 58 cf 3e e0 6e f1 3d 9c c2 bd 3e 4c 64 43 3d
       0.40497577 0.11788726 0.37062538 0.047703072
000270 04 b5 a1 bb 97 e9 8d bd a8 2a 4e bf 37 36 ba be
       -0.004934909 -0.06929319 -0.8053384 -0.36369488
000280 45 db 03 3f 46 fa 95 be fc b9 b0 be a2 b2 99 be
       0.51506454 -0.29292506 -0.34516895 -0.300191
000290 d9 45 06 3f 23 fe 61 be a4 e9 cf 3e 74 dd 2e 3e
       0.5245033 -0.22069602 0.4060794 0.17076665
0002a0 0f 45 ba be 64 32 fd 3e 6c 30 33 be de c7 d9 3e
       -0.36380813 0.49452507 -0.1749894 0.425353
0002b0 40 07 0a 3e 0f 09 cc be 37 fd 42 3f 14 a4 25 3e
       0.13479328 -0.3985066 0.76167625 0.16175872
0002c0 04 cc 4d 3d 1e e8 f2 be bd 27 fd be 7e 5a 4d be
       0.050243393 -0.47442716 -0.4944438 -0.20054051
0002d0 68 19 27 3f 37 32 da be ad 76 04 bf e3 03 8b bc
       0.6527314 -0.42616436 -0.51743585 -0.016969627
0002e0 3a 4f 1a be fd 15 78 be a8 69 55 bf c1 b0 e7 be
       -0.15069285 -0.24227138 -0.83364344 -0.4525204
0002f0 54 b4 c1 be e2 7a 32 3d 0d 4d e3 3d 38 94 17 3e
       -0.37832892 0.04357422 0.11098681 0.14802635
000300 2f bb 02 bf 6d fa 8a 3e c1 84 4c 3f 38 7e b5 3e
       -0.5106687 0.27144185 0.79890066 0.3544786
000310 94 b3 00 3e 50 8b f7 bd 4a 42 ad 3e 7f 87 8e 3e
       0.12568504 -0.120871186 0.33839637 0.2783775
000320 e6 7b 25 be 3c 78 0f bf 6c 26 1e bf 2e 2f e5 be
       -0.16160545 -0.5604284 -0.6177738 -0.44762558
000330 ea 39 2a bf 0d f2 0a be c6 d3 0a 3e 8a 16 a7 3e
       -0.6649462 -0.13568898 0.13557348 0.32634383
000340 87 1e 9a 3e b2 ea 56 be b0 56 5c bf 24 7a 91 be
       0.30101416 -0.20987967 -0.86069775 -0.28413498
000350 93 bc 1a 3f d4 cd a6 be 33 08 9e be fd e5 b3 be
       0.6044399 -0.3257891 -0.3086563 -0.35136405
000360 8a 4c 27 3e e5 d9 04 3f d5 d8 c4 be 11 c3 fb 3e
       0.16337791 0.5189498 -0.3844668 0.4917226
000370 71 71 7f 3e 76 23 be 3e d8 91 55 3d dc 12 99 3e
       0.24945618 0.3713643 0.05214104 0.298972
000380 87 c5 a3 be 49 81 ca 3e d8 34 f4 be 3b e0 1a be
       -0.3198664 0.39551762 -0.47696567 -0.151246
000390 9f 21 7d 3c 4b 95 43 be e8 a3 ac be fb a4 be be
       0.01544991 -0.1909992 -0.337188 -0.37235245
0003a0 fa 80 f5 be 1f 35 88 be c2 6f 09 3e d9 f5 bf bc
       -0.47949964 -0.26603028 0.13421538 -0.023432659
0003b0 e4 e4 92 3e b2 26 d7 3e 99 3d 2f bf af 4a f8 be
       0.28690255 0.4202171 -0.68453366 -0.4849448
0003c0 25 5f 36 bf e4 cc ff 3e 55 02 21 3f ad 36 d5 3c
       -0.7123893 0.49961007 0.62894183 0.026027048
0003d0 d9 af 1c be f5 ec fe be ce 16 b7 bd 11 3c 0e be
       -0.15301456 -0.4979016 -0.089398965 -0.13890101
0003e0 85 87 fd be 79 5a d8 3e 12 dc a1 3e 33 94 ce 3e
       -0.49517456 0.42256525 0.31613213 0.40347442
0003f0 61 6a 4c bc e9 33 79 3e 53 32 17 3f cb 0b 65 3e
       -0.012476535 0.24336208 0.59061164 0.2236778

bias f4 [512]
000000 d4 c5 fb 3e 2e db 17 3e 2b 04 c8 bc d5 02 0d 3e
       0.49174368 0.14829704 -0.02441605 0.13770612
000010 84 0b 03 bd 6d b1 9d 3e 78 10 eb bd 4e 95 a4 bd
       -0.031993404 0.30799428 -0.114777505 -0.0803629
000020 73 3a 3d be b2 4f 34 be 2a 7a f5 3e c2 a3 a3 3c
       -0.18479328 -0.17608526 0.47944766 0.019975547
000030 cb d3 42 be 59 cf c8 3e b5 6c ff 3e ee 46 97 be
       -0.19026105 0.39220694 0.49887624 -0.29546303
000040 c5 74 d7 be e9 9a 9e be 4a ac e2 be 92 76 7e 3e
       -0.42081276 -0.30977562 -0.4427207 0.24849918
000050 d2 b9 69 be ad 97 c7 3e 5d f0 b0 be 5f a6 10 3e
       -0.22824791 0.38982907 -0.34558383 0.14125966
000060 7b 6c a5 3e b4 92 09 bf 2c 77 bf 3d 54 15 b2 3e
       0.32309327 -0.53739476 0.09348902 0.34781897
000070 7a 02 b2 be 41 84 27 3e ff 63 d3 3d 9b 4b 5e be
       -0.34767514 0.16359045 0.10321807 -0.21708529
000080 7b 0f 85 bd 07 8e d9 bd 00 ba c3 be e2 ce 73 be
       -0.06497093 -0.10622793 -0.38227844 -0.23809388
000090 5e 1a 69 3e ff a9 90 3e f3 90 6f be f3 51 05 3f
       0.22763965 0.28254697 -0.23395137 0.5207817
0000a0 89 67 81 3e 61 d2 5d 3e b8 a5 e4 3e 2e e2 06 bf
       0.25274304 0.21662284 0.44657683 -0.5268887
0000b0 31 f9 97 be 01 14 42 3c c3 be 00 3f 4a e9 d5 3e
       -0.29682305 0.01184559 0.5029108 0.41779548
0000c0 39 62 bd be 1e e9 2a 3e b0 9f 7e be bb f8 12 bf
       -0.36989 0.1669049 -0.24865603 -0.5741078
0000d0 4e f4 8b be 87 01 9b 3e 62 0a 9f be 7d 79 9c 3e
       -0.27334827 0.30274603 -0.3106261 0.30561438
0000e0 ea 0c c1 be f5 bb a9 3e 04 7f 8a be ce cf d2 3e
       -0.37705165 0.33151212 -0.2705003 0.41174167
0000f0 ee db 65 3e 07 cf b7 be 65 cb 60 be b2 43 7b 3e
       0.22447178 -0.35900137 -0.21952589 0.24537542
000100 31 18 ef be f0 f8 a8 be ad cd 8c 3e 72 85 82 3e
       -0.46698144 -0.33002424 0.27500668 0.25492436
000110 f0 d0 61 be 0c 71 23 be 33 a7 c0 be 9b 58 b9 3e
       -0.2205236 -0.15961093 -0.37627563 0.36200413
000120 4a 10 98 3e f6 de e7 be dc 7a d6 be 8c 18 5d 3c
       0.29699928 -0.45287293 -0.4189061 0.013494622
000130 bb da 3f 3e 0f f3 82 bd de dd 4c be 3c 77 9a 3d
       0.18735783 -0.06394016 -0.2000651 0.075422734
000140 f2 42 b6 3e af 46 9a be ca a3 74 3e 89 29 b8 3d
       0.3559795 -0.30132052 0.23890606 0.08992297
000150 fc 2f 38 bd 8f 9a 68 3e e4 2e 06 bd 95 9b 30 bd
       -0.044967636 0.2271521 -0.032759562 -0.043117125
000160 e5 24 28 be 73 7b 71 be aa c1 e9 be 65 72 a7 be
       -0.16420324 -0.23582248 -0.45655566 -0.32704464
000170 f4 5f 40 3e 03 a1 99 be a1 7c 9b be 85 1c fd bd
       0.18786603 -0.30005655 -0.30368522 -0.12358955
000180 71 07 df 3e fd 54 12 be 0c 41 a7 3e dc 3e 0a bf
       0.43560365 -0.14290233 0.32666814 -0.54002166
000190 a2 1d 90 be 4f c2 c8 3d 78 5d 13 3e a6 a8 9a 3e
       -0.28147608 0.098026864 0.14391124 0.30206794
0001a0 c7 f7 b8 be 6b da 85 3e ce 7b 76 be c4 b5 04 be
       -0.3612654 0.26143202 -0.24070665 -0.12959963
0001b0 3b 6b bd be 36 a3 d4 be 97 f5 32 3e 36 2c af be
       -0.36995873 -0.4153077 0.17476498 -0.34213418
0001c0 e4 c3 e3 3e 6b 1e c8 bd 5e ee 00 3f 03 7c f6 be
       0.4448539 -0.09771427 0.5036372 -0.48141488
0001d0 86 1c 9d 3e 4d cc 09 3d 63 6f ca 3e 08 de 1f be
       0.30685824 0.033642102 0.39538106 -0.15612042
0001e0 f8 0d 53 3e 19 50 7c 3e 74 f9 a0 3d 1b 08 1c 3e
       0.20610797 0.2463993 0.078600794 0.15237467
0001f0 89 2e 6a 3e 54 04 e1 3d ce 8c 97 3e 42 dc 0d 3e
       0.22869314 0.10987154 0.29599613 0.13853553
000200 9f 5c c2 be c7 f3 77 be 4d 2f 06 be f7 8d f7 be
       -0.3796129 -0.24214087 -0.13103981 -0.48350498
000210 cb 99 95 3d c1 eb 76 3e e2 66 a1 3e b0 0c b3 be
       0.07304724 0.2411337 0.31523806 -0.34970617
000220 7d dc f8 be 17 a5 df 3e 7a cb ef 3e b8 e3 67 3d
       -0.4860572 0.4368064 0.46834928 0.056613654
000230 52 69 72 be 19 76 31 be e8 29 7e 3e 50 31 08 bf
       -0.23672989 -0.17330207 0.24820673 -0.53200245
000240 57 e7 e1 3e 9e 44 99 bd a6 22 b3 be 7f a0 91 3e
       0.4412181 -0.07483791 -0.34987372 0.2844276
000250 89 7f c9 3d 91 87 2c 3e cd c4 c5 be 81 c9 09 3d
       0.098387785 0.1684859 -0.3862671 0.033639435
000260 7b ce 0d 3e c3 29 4c 3e b0 a6 f5 be 6c f7 d8 be
       0.13848297 0.19937806 -0.47978735 -0.42376268
000270 b8 67 a6 3e 6a f5 86 3d 72 e2 d2 be 82 52 93 3e
       0.32501006 0.06589778 -0.4118839 0.28773886
000280 6a 32 be 3e a7 fd 38 be a3 0f 97 3e bf 05 58 3d
       0.37147838 -0.1806551 0.29504117 0.052739855
000290 22 22 44 be 75 20 c3 3e 01 77 98 be 37 18 72 be
       -0.19153646 0.381107 -0.29778293 -0.2364205
0002a0 88 f7 f8 be 16 d3 e6 3e 12 37 f7 3e f4 29 ac be
       -0.4862635 0.4508292 0.48284203 -0.33625758
0002b0 e4 e3 b4 be ae fa bf 3e d8 63 de be 28 24 f9 be
       -0.35330117 0.3749594 -0.4343555 -0.48660398
0002c0 9e f3 43 be 7b eb f7 bd 5c 42 4a be 6c 27 a9 3e
       -0.19135901 -0.12105461 -0.19751877 0.3303789
0002d0 cf a0 0a 3e 70 61 e6 be 81 ac 2c 3d 4d a6 81 be
       0.13537906 -0.44996214 0.0421567 -0.2532219
0002e0 bb a8 25 be 90 bb 81 3b 5d 4f 32 be 2d 30 93 3e
       -0.16177647 0.003959127 -0.17413087 0.28747693
0002f0 a6 fc 9c 3e ea 0a 77 3d d0 6f ec bd 1a 29 51 bd
       0.30661505 0.060313143 -0.11544764 -0.051064588
000300 4e 06 96 3e f0 bb bf 3e e4 a7 ca be 3d a9 48 3e
       0.29301685 0.37448072 -0.39581215 0.1959581
000310 29 2a 65 3d 14 08 90 bd 69 36 b7 be 5e 88 52 be
       0.05594841 -0.07032791 -0.357837 -0.20559832
000320 7c 4a a3 be 76 e8 59 be ab d2 cc 3d 41 2f 9c be
       -0.31892765 -0.21280083 0.10001119 -0.30504802
000330 fc 13 f3 3e 34 2e 66 3e b2 58 9e 3b a4 a4 e2 be
       0.47476184 0.22478563 0.0048323506 -0.44266236
000340 ea c1 28 3e e6 87 2e 3e 2a 57 ee 3e 52 35 d1 3e
       0.16480222 0.17044029 0.46550876 0.40860993
000350 c9 17 df bd d4 d6 da 3e 3f 08 88 3e da ed 82 3b
       -0.108932085 0.42742026 0.2656879 0.0039956393
000360 bd 7d e9 3e f7 32 ed 3d b6 9f a4 3e 68 df e9 be
       0.45603743 0.115819864 0.321531 -0.45678258
000370 80 71 07 bf 8b 35 6b 3e 60 2d f0 3e 50 90 38 be
       -0.5290756 0.22969644 0.46909618 -0.18023801
000380 ae d5 94 be 0b 65 ae 3e 82 28 f9 be 3a ee 8f 3e
       -0.29069275 0.34061465 -0.48663718 0.2811144
000390 8c b1 88 bd 0e fc ba bd 6b 0d 3e 3d ee e5 2b be
       -0.066744894 -0.09130107 0.046399515 -0.1678693
0003a0 02 ca dc 3e 92 5a 36 3e 05 09 e7 bb 5b ef 2a 3e
       0.4312287 0.17807987 -0.0070506358 0.1669287
0003b0 12 c4 e5 3e 3f f2 ac be 40 94 63 bb 3a b4 c3 3e
       0.44876152 -0.3377857 -0.0034725815 0.3822344
0003c0 c5 58 ed be 1f 7c 5d be 1e 58 62 be 98 d2 52 be
       -0.46356788 -0.2162938 -0.22103927 -0.20588148
0003d0 d9 58 b7 3d aa 13 eb bc 47 4e 35 3d 8e b3 81 3e
       0.08952493 -0.0286959 0.044264104 0.25332302
0003e0 1d d1 d8 bd 54 e6 7b be 9f 17 13 bd 02 9c 0e bf
       -0.1058676 -0.24599582 -0.0359112 -0.557068
0003f0 d0 9f e6 be 8a f6 cb 3d f7 5c 4d be cc a3 8d bd
       -0.45043802 0.09959133 -0.20054995 -0.069160074

weight f4 [256, 512]
000000 a2 c9 20 be db d6 8a bd 10 b9 88 3b 15 9a 25 be
       -0.15701917 -0.06779262 0.004172452 -0.16172059
000010 de f8 b6 3d a4 28 2c bd fa 70 84 3c 8b 50 42 3d
       0.089341864 -0.042030945 0.016167153 0.047440093
000020 3b 41 ad be ba 80 db 3d bb a6 ce 3c 67 b2 8d 3d
       -0.3383883 0.10717912 0.025225988 0.06918793
000030 0a 47 b1 3d d4 21 9c 3d e7 ac 54 bd c4 b4 11 bb
       0.08656128 0.0762364 -0.051922705 -0.002223299
000040 62 7e 9b be d5 a1 fb bd 5f 04 29 bd aa 11 95 3c
       -0.3036986 -0.122867264 -0.041263934 0.0181969
000050 36 33 e7 3c e7 41 fd bb 8b e1 ee 3c 4a bc 1d 3c
       0.028222661 -0.0077288034 0.029160282 0.009627411
000060 f1 41 c0 bc 9e 67 0c be a4 f8 a4 bd 19 6c bb bd
       -0.023468943 -0.13711402 -0.08055237 -0.09151477
000070 6b cc 79 be 9f 95 5c 3d 9c 2d ed 3c d6 b6 89 3d
       -0.24394386 0.053853627 0.028952412 0.06724326
000080 75 59 47 3d 8a b0 14 3e 9f 49 aa bc a1 f9 82 3c
       0.048669297 0.1452047 -0.020787058 0.015988173
000090 93 af 0e 3e f8 8d b5 bd db ac ea bd ad 5d 9a 3a
       0.13934164 -0.08864969 -0.11458751 0.0011777185
0000a0 c7 94 a4 3d e4 24 b5 bc f9 c6 ee 3a 6a 49 14 3d
       0.080361895 -0.022112317 0.0018217257 0.036202826
0000b0 05 14 ab bd c6 42 aa bb 96 06 a1 3c ca b4 71 3d
       -0.08353428 -0.0051959483 0.01965646 0.059010305
0000c0 22 5c 1d 3c 21 99 08 3d f1 57 81 3c 35 f8 86 3c
       0.009604486 0.03334916 0.015789004 0.016475776
0000d0 6d 70 15 bf 23 c8 ec 3c 99 95 02 3e f2 df 2d bc
       -0.58374673 0.028904026 0.1275238 -0.010612475
0000e0 c6 2e 0f be c3 38 85 3c 16 cf 0a bd d4 4b 94 3a
       -0.13982686 0.016262418 -0.0338889 0.0011314102
0000f0 ee 61 0a bd 55 45 65 bc 75 2b c6 3d 66 a2 15 3d
       -0.0337848 -0.013993581 0.096762575 0.03653183
000100 00 39 dc bd 9c ad 53 3d 6f 62 37 3e 9b 92 eb 3d
       -0.107530594 0.05167924 0.17908643 0.11502572
000110 15 1a ac 3d d9 b6 ef 3c ed 12 94 3d c0 4f 1e 3d
       0.08403412 0.029261993 0.07230172 0.038650274
000120 46 5e 30 3d ab 34 ae 3c ea 5b 1e be 8c d9 b9 bc
       0.043058656 0.021265348 -0.1546475 -0.022686742
000130 0a ef 16 bd 69 5b a2 3d 58 cf ab be af 00 e5 bd
       -0.03684906 0.07927591 -0.33556628 -0.11181771
000140 84 42 b7 3c 46 a0 4c bd e2 7e 8c bc a0 bf bb 3c
       0.022370584 -0.049957536 -0.017150346 0.022918522
000150 84 2e 8b 3d 6d 9e 46 bd d1 90 95 3e f3 d1 d2 bd
       0.067959815 -0.04849093 0.2921205 -0.10293951
000160 08 06 ec 3d fe d8 5c be 4a 31 15 be dd 3a b5 3b
       0.11524588 -0.21567151 -0.14569584 0.0055306987
000170 cc ae a1 3c 35 b3 07 be d2 5f 5b 3c b6 fd c6 be
       0.01973667 -0.13251956 0.013389545 -0.3886544
000180 ec 70 bb bd 1e bf 6e 3d bc b9 45 bb 54 23 7a 3d
       -0.091523975 0.058287732 -0.003017052 0.061068848
000190 5d d4 97 bd 9e 69 9a bd 24 d8 49 bd 62 0e 87 3c
       -0.07413552 -0.07539676 -0.049278393 0.01648635
0001a0 a3 e3 c7 3d 05 47 d8 3c 4f ed 64 3c f9 01 b4 be
       0.09760215 0.026401052 0.013972594 -0.35157755
0001b0 50 5c 7f 3d 7b 41 c9 3d 00 7a 45 bd bf 99 7d 3d
       0.062343895 0.098269425 -0.04821205 0.0619142
0001c0 67 ae 47 bc c7 26 9f 3d 6d f1 28 3d 0b cf a8 3d
       -0.012187577 0.07771068 0.041245867 0.08242615
0001d0 66 69 b3 3d 98 01 5c be 82 63 91 3d 4f b8 9b be
       0.087603375 -0.21484983 0.07099058 -0.30414054
0001e0 02 8a c9 3b 9e a0 28 3e 46 5d 51 be 91 a5 30 ba
       0.006150485 0.1646752 -0.20445737 -0.00067385385
0001f0 e0 cb 8e 3d a9 80 75 3b 1b c0 e4 3c cf 9c 03 3d
       0.0697248 0.003746072 0.027923634 0.032131966
000200 11 7a bd 3d 9d 2c 48 3c de b6 c3 be c3 51 93 be
       0.09251798 0.012217668 -0.38225454 -0.28773317
000210 00 58 01 3e c0 94 94 bc 69 a3 8e bd 9f 08 0b 3d
       0.12631226 -0.018137336 -0.06964762 0.03394377
000220 f7 7a 18 be 01 8c ac 3c 05 16 1f bd ce 70 91 bd
       -0.14890657 0.021062853 -0.03883936 -0.07101594
000230 84 c8 d6 bd 54 bd 28 3c 1c 1f d7 bc f0 48 89 bd
       -0.10487464 0.010299046 -0.026259951 -0.06703365
000240 a4 12 0e be ef 77 21 3d be 3a 00 bd 74 12 3a 3c
       -0.13874298 0.03942102 -0.03130602 0.011356939
000250 f8 95 8a 3d 5d 5d a8 bd 9d e1 2c be f5 9d 7d be
       0.067668855 -0.08220933 -0.1688294 -0.24767287
000260 a0 74 a0 bc bb 1e e5 bd c6 35 8f 3d 62 3e 23 be
       -0.019586861 -0.11187502 0.06992678 -0.15941766
000270 b3 db 71 3d 0c 33 ce bd a0 62 77 bb d3 0c 07 bd
       0.059047412 -0.1006833 -0.0037747994 -0.032971215
000280 ad 80 26 3d 57 66 30 bc 20 e8 f7 bd 42 7a 76 bd
       0.04065006 -0.010766587 -0.12104821 -0.060175188
000290 a4 e2 1f be 36 c0 e0 bd 56 7e 4e bd 63 01 04 be
       -0.156138 -0.10974161 -0.050413452 -0.12891154
0002a0 8f 11 57 3d 61 77 17 3c 97 b3 f5 bc c1 21 3c be
       0.05250698 0.009244771 -0.029992862 -0.18372251
0002b0 b3 de 4d bb 3e f9 ad 3b cc 60 94 bd 28 90 20 be
       -0.0031413257 0.005309253 -0.07245025 -0.15679991
0002c0 5b f3 87 bd b7 76 e5 3c 2c ff 2b bb 77 bc 89 3d
       -0.06638213 0.02801071 -0.0026244624 0.067254
0002d0 22 b5 36 be 3c 10 0b bd 8c ed ba bc e2 64 da 3d
       -0.17842534 -0.03395103 -0.02281835 0.10663773
0002e0 ae a2 ee bc 8a e7 f1 bd 3c 86 b7 bc 0b 15 31 3d
       -0.029130306 -0.11811741 -0.022402875 0.04323296
0002f0 58 6d 88 3d 84 61 71 3d ca f6 99 3d a2 c4 7a 3e
       0.06661481 0.05893089 0.075177744 0.24489072
000300 7a 05 73 3d 92 88 d4 3d d3 67 8d 3d 21 bc 40 3c
       0.059331395 0.10377611 0.069045685 0.011763603
000310 1c 4b 85 3d 71 e4 6c 3d f5 3c bf 3a 3b d5 1d 3d
       0.065084666 0.057835046 0.001459031 0.03853343
000320 be ce ea bd 04 30 ba bc 40 87 bb 3d b5 a2 11 bf
       -0.11465214 -0.022727974 0.09156656 -0.56888896
000330 0c 0a a9 bc b7 93 66 bd ff ee 19 bd 5a 21 cf 3d
       -0.020634674 -0.056293216 -0.03758144 0.10113783
000340 50 de af 3d cd 12 66 3d 3a 92 df bc a3 2c 6d 3d
       0.085873246 0.056170274 -0.027291406 0.057903897
000350 47 ca 8d 3c 7e ff 7a bd 45 6e 04 bc a3 18 9c be
       0.017308367 -0.061278813 -0.008082931 -0.30487546
000360 4f 70 64 bd 6b 7c b0 3d 7a e8 23 bc e6 91 43 3c
       -0.05577117 0.08617481 -0.010004157 0.01193664
000370 9c 4b 06 be 65 59 b2 3c 2d bc 15 bd e9 ca b2 bd
       -0.1311478 0.021771142 -0.03655641 -0.08730108
000380 64 74 40 be e8 3f 2d 3e 57 9a c7 bd 2c 9a 1b bd
       -0.187944 0.1691891 -0.09746235 -0.037988827
000390 eb eb 5d 3d a2 7d 97 3c 37 d2 2c bc 9a 63 0a be
       0.054180067 0.018492524 -0.010548166 -0.13514557
0003a0 c4 0d 96 3d c7 7a ae 39 c8 2f 28 3d 1b 50 37 3c
       0.07326844 0.00033279342 0.041061193 0.011188532
0003b0 5e 17 06 bc 36 ee ce bc e5 a5 e6 bc 1f 5e d9 bc
       -0.008184282 -0.025260072 -0.028155277 -0.026534138
0003c0 f3 a8 0d 3d 53 36 84 3c bd 2f a0 3c 56 3d d4 3d
       0.03458495 0.016139185 0.019554013 0.103632614
0003d0 61 16 b3 bb ed fc 6a 3d 9d d6 35 3d e0 24 9f 3c
       -0.0054653143 0.057370115 0.044394124 0.019426763
0003e0 0c c5 5d 3d 23 0b ad bc a1 51 83 3c 98 1e 0e 3e
       0.054142997 -0.021123474 0.016030135 0.13878858
0003f0 ca f3 91 bc 4b a8 bc 3d 58 83 94 be d4 90 32 3e
       -0.017816443 0.09211787 -0.29006457 0.1743806

bias f4 [256]
000000 1b 67 89 3c e7 3f 17 3d 01 0c 9e bc 49 8e ca 3c
       0.016772797 0.036926176 -0.019292833 0.02472605
000010 97 c7 32 bd 88 8e f9 bc 51 38 6f 3d ae c2 5b bd
       -0.043647375 -0.030463472 0.058403317 -0.053652458
000020 df 57 c8 bd 95 76 1d 3d 1a 3a dc 3c b3 37 2e 3b
       -0.09782385 0.038443167 0.026883174 0.0026583492
000030 aa 7e ce bc c2 4c 03 3d 9f a0 45 bd 00 f9 53 bd
       -0.025206883 0.032055624 -0.048248883 -0.051751137
000040 61 ed 74 3c 96 f5 d1 bd 77 9a 74 bd 9a 08 f5 bc
       0.014949174 -0.1025192 -0.05971762 -0.029911328
000050 68 e2 dd 3d c2 69 18 3d c9 50 1e bd 3a 19 cd 3a
       0.10834199 0.037210234 -0.03865126 0.0015647777
000060 44 52 5f 3d 53 06 83 bc 39 a2 a8 3d 24 95 17 3d
       0.054521814 -0.015994227 0.082340665 0.037007466
000070 b5 c9 03 3d a1 c1 b4 3d 1f 8d 3c 3c 79 82 44 3d
       0.032174785 0.08825994 0.011508255 0.04797599
000080 0a a5 2f 3d d5 3f 1e 3d e9 7e 72 3d ae e5 b1 bc
       0.042882003 0.038635094 0.059203062 -0.021715965
000090 6f 8e cf 3c cc 5e d8 3c 16 f8 a4 bc 40 28 a5 3d
       0.025336472 0.02641239 -0.020137828 0.08064318
0000a0 e8 37 41 3d eb 28 ef 3c 55 71 c5 3d 83 90 ab 3d
       0.047172457 0.029194316 0.09640757 0.08377173
0000b0 9f 85 8d 3d 3c 91 38 bc f9 bc 8c bd a5 42 bb 3d
       0.06910252 -0.011265095 -0.06871981 0.09143571
0000c0 83 2d 01 bd c1 3c 02 bc 53 1d de bc 0b 8f da 3c
       -0.031537544 -0.007949055 -0.027113592 0.026679536
0000d0 73 ae 1b bd f8 df cf bc 64 2f e0 3c 51 0b a4 3d
       -0.038008165 -0.025375351 0.027366348 0.08009971
0000e0 ab 8e 39 bd 85 2b 80 3c ff 49 f7 3c 8d 0b 1a bd
       -0.045302074 0.015645752 0.030186651 -0.037608672
0000f0 74 44 0a bd e4 80 90 3c e3 9f 03 bd 37 1d 8b 3d
       -0.03375669 0.017639585 -0.0321349 0.06792682
000100 7e 06 1d bc 15 dd 14 3c 3f d9 9d 3d 17 72 2f 3c
       -0.009584067 0.009085913 0.07707452 0.0107083535
000110 d6 5a b2 3d 8b 82 a5 3c d7 08 ce bc 1a 88 80 bc
       0.08708732 0.02020385 -0.0251507 -0.015689898
000120 94 84 af 3a 3a c8 46 3c 2b d1 80 bd ec c0 9d 3d
       0.0013390952 0.012132699 -0.062898956 0.077028126
000130 cd 05 9b bb ab f5 c3 3d dc 12 96 3c 97 95 24 3c
       -0.004730916 0.09568342 0.01831954 0.010045431
000140 21 49 b3 bb 76 ea af 3d 13 6b e0 3d ec a2 05 3c
       -0.005471364 0.08589642 0.10957923 0.008156519
000150 6b e4 b2 3d c5 6c a7 3d ff fd db 3c 21 63 aa 3c
       0.087349735 0.08175043 0.026854513 0.020799221
000160 79 28 0b 3d d3 97 c6 bc 26 d6 6c 3d 6c 71 5f 3d
       0.033974145 -0.024242317 0.057821415 0.054551527
000170 db 3a 09 bd e2 eb 09 bb a6 f2 da bb fd 8a 81 3c
       -0.033503395 -0.0021045138 -0.006681758 0.015813345
000180 af ab c8 3d 06 fa 41 bd c9 4a 94 3d 8b 04 07 3d
       0.09798371 -0.04735758 0.07240827 0.032963317
000190 03 82 9c 3d 5b 2b 00 3d 03 c2 07 bc 4f df 90 3c
       0.07641985 0.031291347 -0.008286002 0.017684607
0001a0 fa e8 af 3c 0d 62 5f 3a 9c 66 31 3d f9 c2 52 bd
       0.021473397 0.00085213856 0.043310747 -0.05145547
0001b0 4c 31 51 bc 08 0b 5a bd c5 77 35 3c 7f 77 52 bd
       -0.012768101 -0.053233176 0.011075919 -0.05138349
0001c0 89 f0 09 3d b6 9c b8 3d 44 9d 5d 3d 18 3b 25 3d
       0.033676658 0.09014265 0.05410506 0.04033956
0001d0 85 db 9e 3c 18 b2 c9 bc 1e 00 45 3c 4e 55 60 bd
       0.019391784 -0.024621055 0.012023954 -0.054768853
0001e0 8b 32 50 bc 89 28 ac 3d 2b 6b 73 3c 96 ae c1 3d
       -0.012707363 0.08406169 0.014857094 0.09457128
0001f0 bd 23 92 3c 5d e1 44 3d 99 ec 3f 3d e2 d2 45 bd
       0.017839307 0.048066486 0.046856496 -0.048296817
000200 11 06 c8 bc 53 23 40 bb fa cc f3 3c 8b 5f 7e 3c
       -0.024416955 -0.002931793 0.029760826 0.015525709
000210 e7 72 84 3d d6 90 03 3d 1b 56 3a bc 9b be 28 3d
       0.064672284 0.03212055 -0.011373068 0.0411974
000220 b3 d3 c7 3c 4a 81 7a bc 44 d4 0a 3d e9 4f 27 bc
       0.024392938 -0.015289614 0.03389384 -0.010211923
000230 b5 c6 fa ba e7 99 28 3d a5 da e7 3d 9e 6e 47 bd
       -0.0019132706 0.041162398 0.11321 -0.048689477
000240 25 41 88 3d 47 f0 17 3d 71 de 80 3d 69 33 dd 3c
       0.0665305 0.03709438 0.06292427 0.027002053
000250 be 5f 8d 3a 12 ec 6b bc e8 ad 12 3d 0f e4 3f bd
       0.001078598 -0.014399545 0.03581038 -0.046848353
000260 7c 69 1e bb 59 26 ec 3c ea 1c 27 3d 9b 9c 82 bc
       -0.002417176 0.02882688 0.04079906 -0.015943816
000270 7d 09 3e 3d 8f 38 9c 3b b4 63 fc bc b1 cf b3 3d
       0.046395767 0.0047674845 -0.03080926 0.08779848
000280 db 4b 0d bd c4 75 04 3d e2 5a b1 3d ca f2 2b bd
       -0.03449617 0.032338873 0.08659913 -0.04197959
000290 3d ea 4d bc a4 fe fd 39 fc 3d ab 3c 2d 66 76 3d
       -0.012568054 0.00048445642 0.02090358 0.060156036
0002a0 7f 93 a8 3a 83 a3 b2 3d 0a 0b e5 bd 71 a9 aa bc
       0.001286134 0.08722594 -0.11183746 -0.02083275
0002b0 54 44 83 3c ba 91 db bc 8c e9 47 3d ae 16 9e 3c
       0.016023792 -0.026802886 0.048806712 0.019297924
0002c0 20 b8 39 3d c9 66 4d 3d b8 d6 35 bd 37 f3 ab 3d
       0.04534161 0.05014685 -0.044394225 0.08395999
0002d0 fb 3d 0a bd e3 81 8c 3d 73 eb af 3d 3e 43 d6 bc
       -0.033750515 0.068607114 0.0858983 -0.02615511
0002e0 b3 76 6a 3d 19 b7 97 3d e5 d1 8a ba 34 9b 06 bd
       0.057242107 0.0740797 -0.0010591118 -0.032862857
0002f0 4c 7c 7c 3d 37 00 62 3c 73 b9 ce bd 8c 6e 82 3d
       0.061641976 0.013793997 -0.100939654 0.063687414
000300 27 af 48 bd 1c 5c 81 3d 80 6d 20 bd 04 61 cb 3c
       -0.048995163 0.063163966 -0.039166927 0.024826534
000310 a7 95 ad 3c 28 c7 0c 3c 8f 09 00 bd f9 48 bf 3d
       0.021189524 0.008592404 -0.031259116 0.0934009
000320 ba d1 ad 3c 53 c4 57 3d 7e fd 0d b9 3a 0d 84 3c
       0.02121817 0.052677464 -0.00013541241 0.016119588
000330 47 27 d6 bc 8a 1e 95 3d 0a 05 eb bd 1f ac 6b 3c
       -0.026141776 0.072812155 -0.114755705 0.014384299
000340 af cc 40 bd 53 44 c2 3d 66 a8 0c bd 1d d5 eb 3c
       -0.0470702 0.09485688 -0.034340285 0.028788144
000350 55 5b 1e bd d5 c7 25 3d 3b 02 a5 3c 62 35 15 bd
       -0.03866132 0.040473778 0.020142665 -0.036427863
000360 c4 f2 73 3d d5 2f 00 3d b0 3c c0 3d 21 71 85 3d
       0.05955769 0.031295616 0.09386575 0.06515718
000370 9d 9f 0f bd 6d ac 1a 3c a2 89 ba 3c 31 61 d4 bc
       -0.03506433 0.009440524 0.022770707 -0.02592525
000380 94 e7 a1 3d df 41 2e bc 4d 1f 10 bd ef 71 49 3d
       0.07905498 -0.010635822 -0.0351861 0.04918092
000390 b5 ed 56 3d e5 80 d7 3d ab 99 bc bb 05 06 d2 bc
       0.05247279 0.105226316 -0.0057556233 -0.025637636
0003a0 29 e0 1e bd 2d 7d e0 3b 3a 46 4b 3d 6c 19 af 3c
       -0.038787995 0.0068508596 0.04962752 0.021374427
0003b0 c0 0e 2c bd 2c e2 a7 3d 09 0e 94 bd 13 aa 92 bd
       -0.042006254 0.08197436 -0.072292395 -0.07161345
0003c0 9a 80 bc 3b 4c 27 fd bc f9 33 90 bc bc 1a c3 3d
       0.005752635 -0.030902527 -0.017602907 0.095265836
0003d0 24 da c5 3d 2a 70 59 bc eb e8 cf 3c f8 90 d7 3d
       0.09660748 -0.013271371 0.025379619 0.105256975
0003e0 a4 dd 2e bd 14 5a 0f 3d 24 9f fd bc 7f d9 b9 3c
       -0.04269184 0.034998015 -0.030959673 0.022686718
0003f0 52 cc 6f bd 4f 74 52 3d 47 f8 be 3c 40 cc 70 bd
       -0.058544464 0.05138045 0.023311747 -0.058788538

weight f4 [128, 256]
000000 14 63 d3 bc 58 c2 7a bc 0a 67 6b bc 5a e0 75 3d
       -0.02580408 -0.015305124 -0.014367828 0.06002841
000010 a0 a1 0a bb 8d 89 66 3d ca bb b1 bc d3 3d 57 3c
       -0.0021153465 0.056283522 -0.02169599 0.013137299
000020 f1 14 92 bd 06 ca 8c 3c a0 57 bb bc 1a 38 55 3d
       -0.071329005 0.017186176 -0.022868931 0.052055456
000030 2c 40 18 3d 0d ed 45 bd 8b 2f 55 bd 40 e5 48 bd
       0.037170574 -0.048321772 -0.052047294 -0.049046755
000040 d4 f0 c8 3c 9d 3b b6 bb d3 da 64 3c 0c c6 d2 bc
       0.024528898 -0.0055613057 0.013968187 -0.025729202
000050 10 06 4d bd 80 2e 60 3d d4 ee 84 bc 18 15 51 bc
       -0.05005461 0.054731846 -0.016227163 -0.012761377
000060 b7 c1 b3 3c 64 96 33 bd 08 f4 08 bd 3c dc 42 3d
       0.021942956 -0.043844596 -0.03343585 0.047573313
000070 a8 b9 41 bd 04 dc 6a bd 8e 3f 32 3d 15 f8 78 3c
       -0.047296196 -0.05733873 0.04351764 0.015195866
000080 21 12 da bc 26 53 73 bd 73 61 0b bd 37 7d 71 bc
       -0.026619973 -0.05940547 -0.03402848 -0.014739326
000090 f0 e4 16 3c 45 ab 61 bd 3a 38 41 bd b9 e6 cb 3c
       0.009209856 -0.055094976 -0.047172762 0.02489029
0000a0 95 4b a7 3b a7 be 87 bc 46 39 50 3d 27 c9 69 bd
       0.0051054456 -0.016570402 0.05083587 -0.0570766
0000b0 83 d2 40 3c e4 a4 00 3c 1c 16 35 bd de de 8d 3c
       0.01176894 0.007851813 -0.04421054 0.017318185
0000c0 8c 83 4f bd b0 9f 3c 3d 1d 70 02 bc b9 fd 03 bc
       -0.050662562 0.046050727 -0.0079613 -0.008056098
0000d0 2d b1 93 3c 0e d4 68 3d 12 a3 54 3d 92 0c 71 bd
       0.01802882 0.056842856 0.05191333 -0.05884988
0000e0 c8 cf 43 bc 5c 46 8d 3c 53 90 18 bd 86 ab 5b 3d
       -0.011951394 0.017245464 -0.037247013 0.053630374
0000f0 18 1c 11 3c c7 6d 19 bd bc 9e 8a bc 4b f0 9c ba
       0.008856796 -0.037458207 -0.016921394 -0.0011973468
000100 70 02 d7 3b 60 76 3c 3b 2a 67 73 3c 14 6a ac 3c
       0.00656157 0.002875708 0.014856139 0.021046676
000110 7a 11 78 bd 08 b0 8f bc 20 5d e1 3c 2c 30 17 bd
       -0.060563542 -0.017539993 0.027510226 -0.036911175
000120 da 53 27 3b 30 ed f6 3c 80 20 56 bb 55 e5 41 bd
       0.0025532157 0.030142397 -0.003267318 -0.04733785
000130 c8 ce 40 3d 27 77 61 bc d4 a0 5c bc dd 72 36 bd
       0.047072202 -0.013761318 -0.013466079 -0.044543136
000140 f5 84 f0 3b 7c 53 5d bd ff 00 38 bd cc 57 47 3d
       0.0073400685 -0.054034695 -0.044922825 0.048667714
000150 81 ec 9f bc 02 d7 01 bd 9a 29 31 bd ce 50 a7 3c
       -0.019521954 -0.031699188 -0.043252565 0.020424273
000160 10 f9 cb 3c 95 6c 28 3c bc 2e 0e 3d fe 5c 12 3d
       0.024899036 0.010279794 0.034712538 0.035733216
000170 0a f3 45 3d 97 db 26 bd 68 0b 55 bc 94 e1 5a 3d
       0.048327483 -0.04073676 -0.013003208 0.053437784
000180 09 7b c1 3c 94 e8 f3 3c 35 05 ff 3c 80 59 9b 3c
       0.023618238 0.029773988 0.031130413 0.018963575
000190 20 05 3c 3c 85 d4 17 bc cd e4 6c 3d 99 30 74 3d
       0.011475831 -0.009266977 0.05783539 0.05961666
0001a0 c8 d5 78 3d 0f 80 99 3c e2 6b 53 bc 01 3c 7d bc
       0.060750753 0.01873782 -0.012904139 -0.015456201
0001b0 40 d6 03 bd d8 b3 70 3c 12 92 11 3d 40 6b 4b bc
       -0.032186747 0.014691316 0.035539694 -0.012415707
0001c0 6e ef 21 3d fb 39 1d 3d e3 43 5c bd 23 c5 51 3d
       0.03953498 0.038385373 -0.05377568 0.051213395
0001d0 ac 6e 7e 3d 5b 3a 3a 3d c0 c8 9a bb d4 da 62 bd
       0.062117264 0.04546581 -0.0047236383 -0.055384472
0001e0 62 16 7f 3d b3 4f 9e 3a 86 1f 50 3d 4a 22 20 3d
       0.062277205 0.0012078196 0.050811313 0.0390952
0001f0 82 c0 e9 bc 20 ae 18 3c 32 53 03 bc 60 41 e7 bc
       -0.028534178 0.009318858 -0.008015441 -0.028229415
000200 00 1b 0d 3d 52 dc 3a 3d d2 54 62 3d ae 62 26 bd
       0.034449577 0.04562027 0.055256672 -0.040621452
000210 6c 0b 2a bd 4a 3f 7f bd 54 7f 94 3c 70 3f 98 bc
       -0.0415148 -0.062316217 0.018127121 -0.018584937
000220 71 d1 6c 3c 00 ac 9a bc aa bb 4d bd 58 0b 2d bd
       0.014454232 -0.018880844 -0.0502278 -0.042247146
000230 58 46 48 3c ce af b0 bc 32 d1 20 bd f0 f0 2b 3c
       0.0122238025 -0.021568205 -0.039262004 0.010494456
000240 1f 83 02 3d 18 33 c6 bb cd 38 51 bc f5 c8 bb 3c
       0.031863328 -0.0060485713 -0.01276989 0.022922972
000250 b8 38 5e 3d e8 54 3c bc 2c e4 f0 bb 2a b9 60 3d
       0.05425331 -0.011494853 -0.007351419 0.054864086
000260 28 45 35 bd 82 aa 0c bd 34 3e f7 bc 5e fa 18 3d
       -0.044255406 -0.034342296 -0.030181028 0.037348144
000270 1e 1a 20 bd df 19 45 bc 50 bc 36 bd ba 14 2c 3c
       -0.039087407 -0.012030094 -0.044613183 0.0105029885
000280 62 f7 5d bd a1 33 38 3d 96 e6 8f bd c0 04 18 3d
       -0.054191 0.044971112 -0.07026403 0.037113905
000290 ec c7 7e 3d 50 7d 17 bd 7f dd 3c 3d b7 f8 56 bb
       0.06220238 -0.03698474 0.046109673 -0.0032802054
0002a0 98 5c 93 3c e3 8a 66 3d 01 9e 6b bd bc cc 02 3d
       0.017988488 0.056284796 -0.05752373 0.03193353
0002b0 b3 47 48 bd da 75 5b bd b5 d4 44 bc 80 4f bd 3b
       -0.048896503 -0.05357919 -0.012013604 0.0057772994
0002c0 3f 0d 20 3d fb 4c 10 3d fa 66 6e bd f6 b9 14 bc
       0.039075132 0.035229664 -0.058203675 -0.00907754
0002d0 57 db 59 bc 1a c4 2b bd 62 de 27 3d 61 ef 3e 3c
       -0.013296924 -0.041935064 0.040983565 0.011653752
0002e0 0d 67 2b 3b 9a e2 fa bc bf 29 9f bb 08 19 45 bd
       0.0026153952 -0.03062563 -0.0048572714 -0.048119575
0002f0 22 b9 1f 3d 56 a7 3d bd b9 4e f2 3a a1 fa 89 bd
       0.038994916 -0.046302162 0.0018486596 -0.06737257
000300 c8 bd 19 bd 61 9d 81 bd da 82 40 bc d7 e7 f8 3c
       -0.037534505 -0.06328846 -0.011749947 0.030383987
000310 c4 1c 8c 3c 17 da f2 3c 5e 92 e9 3c 7c 6f 0a bd
       0.01710356 0.029645009 0.028512176 -0.033797726
000320 c0 af 6c bd 0b 09 99 3c 8c f7 4d bd d6 dd 3b bd
       -0.057784796 0.01868107 -0.050284907 -0.045865856
000330 dc 7c cf bc 5a 73 e8 3b db 0c 66 3d ec 76 0e bd
       -0.025328092 0.007093829 0.056164604 -0.03478138
000340 38 ef 1c 3c 07 8f 7b 3b 44 27 f2 bc 3a 2c 59 bd
       0.009578519 0.0038384811 -0.029559739 -0.053020693
000350 25 fb 3a 3d a3 26 0b 3d ab 7f 65 bd 5a b5 71 3d
       0.045649666 0.033972394 -0.056029957 0.05901084
000360 88 86 74 bd f6 fc 15 bd 28 da 00 bd fe 71 16 bd
       -0.05969861 -0.036618195 -0.03145805 -0.036729805
000370 e8 7c 68 3c a8 7e ff 3c a9 80 f8 bc 4e 11 61 3d
       0.014189936 0.031188324 -0.030334787 0.054948144
000380 4a 9f 4f 3d 8a 6d 1e 3d df 53 68 3d 81 96 44 bd
       0.05068902 0.038678683 0.05672061 -0.047995094
000390 f9 2d 1a 3c 16 f2 fc bc 10 52 e2 3c a0 38 01 bb
       0.009410375 -0.030877154 0.027627021 -0.001971759
0003a0 b0 d2 2f 3c af bc 64 3d 34 97 f2 3c f7 dd 3e bd
       0.010731384 0.055844005 0.029613115 -0.0465984
0003b0 4c 89 6a 3c 93 06 65 3d 26 0e d3 3c 40 09 5c bc
       0.014314961 0.055914473 0.025763582 -0.01342994
0003c0 9c 4f d8 bc 84 57 53 bd b4 cc 2c bd 41 52 b4 3c
       -0.026405148 -0.051597133 -0.042187408 0.022011878
0003d0 e4 47 76 bd a0 41 30 bd 20 6e 10 3d cc e5 c1 bb
       -0.060127154 -0.043031335 0.035261273 -0.0059172865
0003e0 78 1c 5e 3c 28 ed 10 bd 7f 77 3b 3d f3 e5 56 3c
       0.013556592 -0.03538242 0.045768257 0.013116348
0003f0 80 fa 82 ba f5 33 4e bd 0f f3 f9 3b c7 ea 49 bd
       -0.0009992868 -0.05034252 0.007627852 -0.049296167

bias f4 [128]
000000 29 0e 3d bd d6 9f 52 3d 62 e4 63 3d 8e 8c b6 3d
       -0.046156082 0.051421963 0.055637725 0.089135274
000010 e7 48 b3 b9 db d3 c4 bc 56 cd a7 3d 14 9b 85 3c
       -0.00034195857 -0.024026802 0.081934616 0.016309299
000020 80 87 35 3d 34 10 04 3d 11 7f 6c bc ee fa 0a 3d
       0.044318676 0.032242015 -0.014434592 0.03393071
000030 07 aa 96 3d d5 68 46 bc 0c d8 b4 bc 0c fe db 3d
       0.07356649 -0.012109955 -0.022075675 0.10741815
000040 06 1c c3 3d bf 43 10 3e 46 98 17 3e 0a 2b e5 3d
       0.095268294 0.14088343 0.14804181 0.1118985
000050 8b f1 57 3d c2 f8 2a bc 20 58 0c 3e 30 b0 8d ba
       0.052720588 -0.010435285 0.13705492 -0.0010809954
000060 34 3b 3d bd b7 5e cc 3d f2 00 5f 3e 8c ca 03 3e
       -0.04619904 0.09979003 0.21777704 0.12870234
000070 6f 3d 87 bd 50 66 ea 3b 81 ab 7a bd 8b 5b 0a 3e
       -0.066035144 0.00715331 -0.061198715 0.13511483
000080 20 41 2d 3c b0 d8 87 3b 7b 2d 11 3e ff ba 16 bc
       0.010574609 0.004145704 0.14177506 -0.009199857
000090 ea 7e df bd 0e d0 17 3e e7 ee 33 3d 0a 16 40 3d
       -0.10912879 0.1482546 0.043929007 0.046896018
0000a0 ab d5 58 bd eb 27 8f 3c 16 bf da 3a 8f e4 5f 3d
       -0.052938145 0.017475089 0.0016689028 0.05466133
0000b0 3b e3 d3 3d bb 4f 17 bc 63 ae 8e bc c4 d3 44 3d
       0.10346075 -0.009235318 -0.017417138 0.048053518
0000c0 04 6f f1 3c f9 79 54 3d 08 46 f6 bc 9f 76 a4 3d
       0.029471882 0.051874135 -0.03006269 0.08030438
0000d0 85 14 12 3e d7 b1 dd 3c e4 9e c8 3c d4 0e a3 3d
       0.1426564 0.02706234 0.024489827 0.079618126
0000e0 01 f1 7b bd 81 e2 45 bd 40 c5 49 3b 66 3d a7 bb
       -0.061509136 -0.048311714 0.0030787736 -0.005103755
0000f0 13 1c 35 bd 5d 7f bd 3d 0d 4f 3e bd 3b e4 c1 3d
       -0.044216227 0.09252808 -0.046462107 0.0946736
000100 06 38 41 3e a9 69 ac 3d 34 5c 2a 3d 34 03 71 bd
       0.18869027 0.084185906 0.041591838 -0.058840945
000110 67 cd 48 bd 16 7b c6 3d ce b1 e4 3d 4b 2e c3 3d
       -0.049024012 0.096914455 0.11166726 0.09530314
000120 4d f4 1c 3e af 50 cc bd bd 28 ed 3c ff 6c 8c 3c
       0.15327568 -0.09976327 0.02895009 0.017141817
000130 c0 de 9c bc 02 c5 ca 3a 53 0d 1e bd d9 4f d6 3c
       -0.019149184 0.001547009 -0.038586926 0.026161121
000140 9f af 98 3d 60 e3 c3 3d c3 be a8 3d e2 ab 3a 3d
       0.07455372 0.09564853 0.0823951 0.045574076
000150 40 7f 5c bd cf cf f7 3d 56 14 17 3e 4b 5f 13 3e
       -0.053832293 0.12100183 0.14753851 0.1439182
000160 8e bf 1c bd 44 58 a6 3d b7 ea f6 bd cb ca 79 3c
       -0.03826862 0.08122304 -0.12056487 0.0152461035
000170 bf d2 b5 3d ff a6 99 3d ae 2c c0 3c 8d db de 3c
       0.08878087 0.07502555 0.023458805 0.0272043
000180 66 0a 0d bd b4 04 aa bc 5b 9c 05 3d da 4a 15 bd
       -0.034433745 -0.020754196 0.032619815 -0.036448337
000190 96 60 f5 3d 2b ad 2f 3d ec 84 19 3e 58 df 0a 3d
       0.11981313 0.042889755 0.14992112 0.033904403
0001a0 f1 82 05 3d 76 20 5f 3c 83 8d 2d bd 62 4a 00 3e
       0.03259558 0.013618579 -0.042371284 0.12528375
0001b0 d0 c4 38 bd 7d f2 22 bd ec a8 20 3d e5 51 62 3d
       -0.04510957 -0.039782036 0.039223596 0.055253882
0001c0 0d 91 e0 3c cf 4f cb 3d d9 d4 43 bd 3e 75 bf 3d
       0.027412916 0.09927332 -0.04781041 0.09348534
0001d0 1f 18 28 3d 2c 82 8a 3d 52 92 05 bd 3b 95 eb 3c
       0.04103863 0.067631096 -0.032610245 0.028757682
0001e0 6d ec 40 bd 22 d3 c4 3d 46 94 4d bc 2b 70 d4 3d
       -0.047100473 0.09610583 -0.012547558 0.10372957
0001f0 92 99 6d 3c 05 4b d7 bc d1 0c d6 3c 54 6c 80 bd
       0.014501946 -0.02628089 0.026129158 -0.06270662

weight f4 [1, 128]
000000 a4 6b f4 3c 4e cb a7 bd 8d ee f5 3c b6 1b 74 3d
       0.029836483 -0.08193074 0.030020976 0.05959674
000010 63 b5 a9 bd 66 e1 dc bb 31 02 b8 3d ae c1 b5 3c
       -0.0828655 -0.006740737 0.08984793 0.02218708
000020 ea c0 93 bd 35 4d f0 bc 7b 51 b7 be 0c 3b 22 3b
       -0.0721453 -0.02933369 -0.35804352 0.0024754433
000030 1e da cc 3d e5 e9 81 bd 87 6c c3 bc 25 05 a6 3d
       0.1000254 -0.0634344 -0.02385546 0.0810645
000040 b7 83 20 3d 14 c9 a6 3d 1b 09 be 3d 41 94 d0 3d
       0.039188113 0.08143821 0.092790805 0.10184527
000050 66 43 00 bd 67 2f 51 bd 30 77 64 3d 1b 6f fe bc
       -0.031314276 -0.051070597 0.05577773 -0.031058839
000060 95 33 1b bd 2f 08 98 3d f2 20 f3 3c a7 bc 6f 3d
       -0.03789099 0.07423436 0.029678795 0.058529522
000070 62 5d 48 3b 70 d4 85 3b 43 36 91 3d 1c 4f 8d 3d
       0.0030573239 0.0040841624 0.07090428 0.068998545
000080 92 60 0c 3d 53 bb aa 3d 53 af 5f 3d 76 ed da be
       0.034271784 0.083365105 0.05461056 -0.42759293
000090 15 c3 bd bc 19 03 d8 3d 17 20 d1 3d c6 3c 8b bd
       -0.023164311 0.10547466 0.10211199 -0.06798701
0000a0 a7 17 3e bd 52 75 7d be a8 1b 88 bc 04 f4 8e bc
       -0.046409275 -0.24751785 -0.01661475 -0.01745034
0000b0 cd 80 a6 3d 79 53 a0 bd 87 64 ad bb 51 77 cd 3d
       0.081300355 -0.07828421 -0.005291525 0.100325234
0000c0 41 ad 11 bd 8b a3 3e bd 7e 87 dd 3c b3 05 80 3d
       -0.03556562 -0.046542685 0.027042147 0.06251087
0000d0 a1 e8 c3 3d 39 06 14 be 66 b8 3b bd f0 34 96 3d
       0.09565855 -0.14455499 -0.045830153 0.07334316
0000e0 80 02 8d 3c 7f ff 86 bd 55 7e 83 3d 48 0c c0 bc
       0.017213106 -0.06591701 0.0642058 -0.023443356
0000f0 16 4e 09 3d fc b8 3c 3b 85 77 96 3d 06 35 ae 3d
       0.033521734 0.0028796783 0.07347015 0.08506207
000100 df 61 b4 3c 9b b1 82 3d ef 81 3a 3d 43 e4 f9 bc
       0.022019325 0.06381532 0.04553407 -0.030504351
000110 e5 96 9a bd a4 2b 36 3d c6 9e 23 3d 34 02 8b 3d
       -0.07548312 0.044475213 0.03994634 0.067875296
000120 cf a5 e3 3d 44 4c 8d bd 2a b1 81 bd e8 f5 36 3d
       0.1111561 -0.06899312 -0.063326195 0.04466811
000130 2c af 84 3d 8b cf 9e bb 7f a5 08 3d cc 93 89 bb
       0.06478724 -0.0048465184 0.033360954 -0.004198527
000140 f0 d9 c6 3d 26 fc 8a 3d 5d 94 5a 3d 0f 9b 9a bc
       0.09709537 0.06786375 0.053364147 -0.018872766
000150 0f e8 42 be 5b 09 94 3d 3a 59 bc 3d 13 b3 c0 3d
       -0.19033836 0.07228347 0.09196706 0.09409156
000160 50 79 18 bd db 27 0b 3d 85 21 46 be e8 86 a5 3a
       -0.037225068 0.033973556 -0.19348724 0.0012628706
000170 89 68 a6 3d 8b 8c e9 3d 40 05 b2 3d c0 1b 90 bc
       0.08125407 0.114037596 0.086924076 -0.017591357
000180 1d 8c 41 bd 91 33 30 bd 28 08 4e bc e6 c5 82 3d
       -0.047252763 -0.043017928 -0.012575187 0.063854024
000190 1a 94 fb 3c d9 86 57 bd 6a 90 b7 3d 04 26 ce be
       0.030710269 -0.052618835 0.08963092 -0.4026338
0001a0 8e 1f 0a bd 25 49 5b bd bd f6 0c 3d f0 a2 a1 3d
       -0.0337215 -0.053536553 0.034414995 0.07892406
0001b0 d7 ac 7c bd a8 92 57 bb a5 5f 95 bd 82 72 7b 3d
       -0.06168827 -0.003289381 -0.07293633 0.0613885
0001c0 00 0e d8 bc 72 36 94 3d ba 59 e4 bb 78 71 a1 3d
       -0.026373863 0.07236947 -0.006968704 0.078829706
0001d0 f8 17 2b bd 93 c1 c2 3d 3e 1d 5e bd b1 59 7d bb
       -0.041770905 0.095095776 -0.054227106 -0.0038658197
0001e0 a6 cc b1 3c 24 eb a3 3d 96 55 6b bd aa a6 15 3d
       0.02170403 0.08003834 -0.057454668 0.036535896
0001f0 80 9d 82 bd 34 8c 52 bd de f9 95 bd a6 10 d2 bc
       -0.06377697 -0.05140324 -0.07323049 -0.025642704

weight f4 [2, 128]
000000 85 1d 37 bd 8b 80 62 bd dd 2d 64 be 59 7a 3a be
       -0.044705886 -0.05529837 -0.2228312 -0.18210734
000010 1b a7 a3 bd 7b bd 15 3d 7f 3a 07 be 88 e3 db bb
       -0.07990857 0.036557656 -0.13205908 -0.0067104734
000020 69 a5 83 bc 36 bc 4b 3c 75 50 3f 3e dd 10 3d bd
       -0.016070085 0.01243501 0.18683036 -0.04615866
000030 9f 94 6a be 9b 81 51 bb dc 73 fb bc 9c 24 2e be
       -0.22908257 -0.003196812 -0.030694894 -0.17006153
000040 02 1d 80 be 47 c6 69 3e 40 94 ba bd e3 f2 14 be
       -0.2502213 0.22829543 -0.09110308 -0.14545779
000050 5b 6e a2 3d f5 3d 26 bc cf f2 2d be fe c1 10 3c
       0.07931205 -0.010146608 -0.16987155 0.008835314
000060 a8 19 1f bd 76 2a 26 be 4e 5e c8 3e b8 98 61 be
       -0.038842827 -0.16227135 0.3913445 -0.22030914
000070 6b d8 87 bd 81 0e cc 3a d2 76 9b bc 6e 50 71 3d
       -0.06633075 0.0015568287 -0.018977556 0.058914594
000080 2f 38 ed 3b 99 f2 ed bc c9 11 69 be c5 a8 cc 3a
       0.0072393636 -0.029046344 -0.22760691 0.0015614262
000090 84 55 4c be e0 d8 39 be fd 6b 07 3d c1 c3 98 bd
       -0.19954497 -0.18149137 0.03306197 -0.07459212
0000a0 a4 e3 1e bd bd f8 de 3d f3 3e 04 bc 84 6a a6 3d
       -0.038791314 0.10887287 -0.008071649 0.08125785
0000b0 29 af 11 3e 15 1d aa bd 38 54 b6 bd 64 72 1a 3e
       0.14226975 -0.08306328 -0.08902782 0.15082699
0000c0 00 f5 90 bd 7f a7 51 bc d9 44 72 3d 48 d1 81 3e
       -0.0707798 -0.012796282 0.05914769 0.2535498
0000d0 bd d5 6d be 9b 30 bf be 8d a9 42 3d ba 69 86 bc
       -0.23226066 -0.3734177 0.047524977 -0.016407836
0000e0 21 7c 66 bd 9c 7f a2 bd 7e d0 a9 bd ef c8 6c bd
       -0.056270722 -0.07934496 -0.0829172 -0.057808813
0000f0 c1 07 19 bc 51 30 de bd b7 ba 8f 3d ec 76 d2 bd
       -0.009340228 -0.108490594 0.07018035 -0.10276589
000100 31 1c 75 3e cf 71 38 be d2 7f 48 be 85 d0 4e bd
       0.23936535 -0.18012165 -0.1958001 -0.05049183
000110 c9 7d 8b 3c 10 12 76 be b7 1a 81 bd 33 32 23 be
       0.017027752 -0.24030328 -0.063039236 -0.15937118
000120 41 8b 7a be 84 27 c0 3e 37 ee 56 bd 9b 12 2f be
       -0.24467184 0.37530148 -0.052473273 -0.17096941
000130 9e b1 81 bd 7a 2d 93 bd fd 51 a3 bc ea 1b 8e bc
       -0.06332706 -0.07186408 -0.019936556 -0.017347295
000140 41 19 08 3c 83 d3 8c be 6a a5 88 be ad d6 8b bd
       0.008306802 -0.2750512 -0.266887 -0.068280555
000150 85 96 b1 3e 1a 3a 6e be 34 b7 ba 3e 0a ae 29 be
       0.3468515 -0.23264351 0.36467898 -0.16570297
000160 fd ca 8e 3d d4 d1 76 be ed e7 94 be 9f f9 8d bc
       0.06972311 -0.2410348 -0.29083195 -0.017330943
000170 7a f1 2b be 06 c9 d4 3a 12 42 6b bc 64 de c1 37
       -0.16791335 0.0016234226 -0.014359014 2.3110952e-05
000180 7d dd 58 3c 62 f3 b4 bc f5 21 4a be 93 eb 0e bd
       0.013236401 -0.02208871 -0.19739516 -0.03489263
000190 d8 f9 79 3e 6b cd 6f 3d 87 64 3c be 17 40 b6 bd
       0.24411714 0.05854551 -0.18397723 -0.08898943
0001a0 53 51 13 bb 61 a8 8a bc db bf 83 3d 5e b9 de 3b
       -0.0022478893 -0.016925992 0.06433078 0.006797
0001b0 c5 10 91 bd 8c 08 b2 bd 5e 83 9d bd 62 f0 af 3d
       -0.07083277 -0.086930364 -0.07691072 0.08590771
0001c0 49 a0 7c 3d 6a c9 62 bd a5 76 15 3d 60 8c 18 be
       0.061676297 -0.055367865 0.0364901 -0.14897299
0001d0 68 41 a1 bd 4c a0 03 3e 31 e5 94 3b 05 62 ed bc
       -0.078738034 0.12854117 0.0045439233 -0.028977403
0001e0 79 63 d3 bd ac 34 d8 3e df bd 98 bc 99 0a 73 be
       -0.10321707 0.42227685 -0.018645225 -0.23734511
0001f0 66 3e 6b 3d ca 17 a2 bb 6f 8c 9f 3d f7 21 60 bd
       0.057432555 -0.0049466835 0.077904575 -0.05471989
000200 94 d4 3a 3d 31 29 9c bd d6 e7 01 be ac 04 84 be
       0.045612887 -0.07625044 -0.12686095 -0.25784814
000210 e4 02 27 bd 38 5f 38 bd 93 e2 3d bd b4 77 1d bd
       -0.04077424 -0.045012683 -0.046358656 -0.038444236
000220 1b d1 3a bd 31 7f 23 bd 7d df 1a bf 09 a3 ed bc
       -0.045609575 -0.03991622 -0.60497266 -0.029008405
000230 ab 3b 8a bd ca 79 48 bc ad 4b 43 3c 62 cb aa bc
       -0.06749662 -0.012236068 0.011919898 -0.020848934
000240 97 c3 cf 3d 47 98 47 3e 8d ce 80 be 2b 4e 0c be
       0.10144728 0.19491683 -0.25157586 -0.13701694
000250 e7 57 62 3d 08 6a 4a 3d 0b 8c 90 3e dc 99 a0 3d
       0.05525961 0.049417526 0.28231844 0.07841846
000260 99 6e a2 bd 51 d2 fc bd e5 03 02 3d e1 13 45 be
       -0.07931251 -0.12344802 0.031741995 -0.19245864
000270 f5 59 b9 3d c3 ec 5f 3d f1 9b 2c 3d 09 8b 73 be
       0.09050361 0.054669153 0.042140905 -0.23783506
000280 de e0 d5 3c 8f 91 bc 3c 9b 92 44 bc 85 46 25 bf
       0.026108202 0.023018626 -0.011997844 -0.6456073
000290 10 71 0c be 8a da 53 be 89 ac 6b be 28 32 96 bb
       -0.13715005 -0.20688835 -0.23015036 -0.004583616
0002a0 69 a3 8d bd 57 13 25 bf 43 2c 40 3d f1 ff 20 3d
       -0.06915934 -0.64482635 0.04691721 0.039306585
0002b0 39 63 1f be ba 81 b9 ba cf b8 8d 3d 2c c5 a4 3d
       -0.15565194 -0.0014153041 0.06920015 0.0804542
0002c0 f2 6a ba 3c 80 8a 94 3d e8 b4 03 bd bc 0e 2c be
       0.022756074 0.07252979 -0.032154948 -0.16802496
0002d0 37 89 a9 3d 54 50 4e 3d 6b c1 93 bd 72 93 cd 3d
       0.08278125 0.050369576 -0.07214626 0.100378886
0002e0 55 10 ca 3c 87 71 ed 3b 94 35 47 bd cf 51 30 3c
       0.02466599 0.0072461995 -0.04863508 0.010761692
0002f0 6b 66 8b bc c2 b2 c8 3c 32 9b a3 bd c5 8b 26 be
       -0.01701661 0.0244993 -0.079885855 -0.16264255
000300 00 2f bc 3e db 51 11 be 72 4b 39 bd 0d f0 9b 3d
       0.36754608 -0.14191382 -0.045237966 0.076141454
000310 6f 0e 8f bd 12 a5 15 be a4 68 92 be 12 f2 d9 bd
       -0.06985175 -0.1461375 -0.2859546 -0.106418744
000320 70 71 c7 bd 95 0d 1f bf e8 57 94 3d 10 db 4b be
       -0.09738433 -0.621301 0.07243329 -0.19907784
000330 72 5c 93 bd 0c ac a5 3b 7e f0 a3 3d 01 e3 28 bd
       -0.07195367 0.00505591 0.080048546 -0.041232113
000340 af 09 56 be 6a ff 29 3e 98 aa 49 3e c1 4d d8 bc
       -0.20902131 0.16601339 0.19693983 -0.026404263
000350 7f ad f1 be 29 e2 17 bd 4e ed 04 3e 92 41 02 be
       -0.4720268 -0.037080918 0.1298115 -0.12720326
000360 ce 36 07 3d d5 40 ba bd 46 88 a2 bd b5 a5 8a 39
       0.03301125 -0.09094397 -0.07936148 0.00026444872
000370 93 63 7e 3e 93 d3 ee bd 21 d6 87 be 0f 10 13 bd
       0.24842672 -0.11661448 -0.26530555 -0.035903987
000380 5d 16 89 bd 25 13 99 3d 9e 39 28 3d ce 1e 2e bd
       -0.066937186 0.07474355 0.041070573 -0.042509846
000390 f6 f4 b6 3e 5d 23 ad bd 0e 5f 85 be 5a b7 a8 be
       0.35733765 -0.08454011 -0.26049083 -0.32952386
0003a0 43 89 c9 bc cb cc a8 3d 7c 56 36 bd af 58 96 be
       -0.024601584 0.08242186 -0.04451607 -0.29364535
0003b0 f0 2a d8 3c df bb 8c bc 85 af b9 3d 94 db af bd
       0.026387662 -0.017179428 0.09066681 -0.08586803
0003c0 7c 46 6b bc e2 8f 73 3d 8d c7 87 3d af 37 83 be
       -0.0143600665 0.05946339 0.06629858 -0.2562842
0003d0 bd 8b 8c 3d 34 ec 1a 3e 55 d5 9d bd 6e f4 b0 3c
       0.068625905 0.15129167 -0.077067055 0.021600928
0003e0 84 e1 9b be f5 79 c9 bc d9 0e ae bd 78 3e a5 3e
       -0.30445492 -0.024594286 -0.08498926 0.32274222
0003f0 a4 26 c4 bc 32 01 29 3d 7e 93 1d 3c 3e d3 59 3d
       -0.023944207 0.041260906 0.009617684 0.053179972

bias f4 [2]
000000 06 83 31 3c f8 ec 8c bd
       0.010834461 -0.06881136
