torch_prj/PG/models/pg_net.pt (torch, 38462 bytes, 6 tensors)

input_layer.weight f4 [128, 4]
00000000: ff37 f6bd e79f 1ebe 172b 9cbe c916 ebbe
00000010: c0c0 533e 629a a1be 88be 573e 776e 9bbe
00000020: 102e d6be 4ff7 793e e544 f43e bf84 e23e
00000030: 53d8 a1bc 1fa0 f7bd a875 dd3e 5119 0f3f
00000040: 9625 a9bd 87ce d13e 0d00 64be 75b0 eabe
00000050: a1e4 d73e ba45 42bc f3cb b2be 3e92 f8bc
00000060: db1a bbbe 4687 b23e 48f4 aabe 2798 fdbe
00000070: c858 cb3e 260c b9be 86ec b2be a631 1cbe
00000080: 47c5 d0be 2673 a33e 7526 883e 6db1 a1be
00000090: 7f0e b0be 9c0d 3c3e 18b5 efbe 7540 11bf
000000a0: 0954 13bf 2c61 5cbe ab07 fdbd dad5 0bbf
000000b0: 9349 353e 0151 e23e 70d8 8e3c e738 77be
000000c0: 1be4 9c3e a155 8fbd b1c7 9cbe daec ec3e
000000d0: 03d8 c4be 5b0f 9d3d 5fef 1bbf 1edc 65be
000000e0: 9e30 8d3e c680 f03e 2070 2fbf 4654 e9be
000000f0: 6eea c13e d675 c93e bd8b 5dbe c8b0 dbbe
00000100: 116e 4f3b 3339 003f 49d2 b2be 6d02 743e
00000110: b896 403e e2b5 8fbd 6124 003f 1c21 023d
00000120: f851 803e 5b70 3a3e 6dd5 073e 65b1 d83d
00000130: 51c5 23be 16da 0abe 6bb2 a9be 6fc9 79be
00000140: acfc 313e 530d b7be 420a 11be 89f3 6dbe
00000150: 7676 db3e 84f7 f23e 7a5f 723c 0cbe ae3e
00000160: f76b 903e 7afa ad3e 2b95 53be 82de cdbd
00000170: be21 9a3b a02c c43e 06fa 03bf ba8e e63c
00000180: da73 2d3e 96bc 5cbe 2e35 1b3e fc25 c93e
00000190: 3f21 803d 5578 b13e a605 d9be cb3d f4be
000001a0: 9b7f b7be adb6 e4bc 80f2 91bd 3e6c eabe
000001b0: 4970 8dbe 1d34 003e 2db3 193e d4cd c43e
000001c0: bed4 f23c 6f97 b9bc 6993 2e3f 154e d73e
000001d0: c27e 2bbe 2e7f 66be 90e9 a03e cfc8 343e
000001e0: fc99 433e 7eb4 41be 0d7e 22bf 9011 16bf
000001f0: 7d5f e03e 0b3a 8abe 40b2 103f 9727 d13d
00000200: bbf6 11be 570c c63e 838b 703e 60f9 9abe
00000210: 9cc2 b53e 61d2 f0be 6579 fd3c 8224 1ebe
00000220: 074d adbe 7f18 d8be 9db0 aebe 475e cdbe
00000230: 7b83 df3e 7820 773e a38c 65be 2e0b 5d3e
00000240: d6b7 3b3e 9c32 993e 90ef a33e 9993 9abe
00000250: dedf 8f3e a7ce b5be e66b 9abd c739 c6bd
00000260: 402d 7f3e fc9b 9fbe f13d 27bd 82c8 983b
00000270: 3c9e 94be 3b7a aabe b07d f03d 9be9 0fbe
00000280: bdf6 7bbb 942c cd3e 6d4e 2e3e 39f2 50bd
00000290: db0b 8e3d a63f adbe 962f 38bd baba 9e3e
000002a0: a118 9a3b 6238 d43e b2a1 c1bd 696e edbe
000002b0: c638 a1be 9fe4 513e 474e 563e 435e 96be
000002c0: beb0 bb3d ee80 5ebe 223a 96be aa1e 69bd
000002d0: 8dcf 7ebe 07bf 5c3d 92a2 cb3e bdcd 6b3e
000002e0: a6d5 44be 6b50 373e 8b29 b13e 6384 8abe
000002f0: 9c80 d4be 91f2 18be ec20 993e d86a 95be
00000300: 55c2 273e 0129 113e 0d62 bd3e 2faf ba3e
00000310: 64cd 9abe db7e 57bd 451d ebbe 830f 733e
00000320: c1ea 72bc a934 c23e 00eb b13e c63d ce3e
00000330: fc2a 8c3e 0445 99bd 8166 0e3f 9238 ce3e
00000340: 8bc7 5dbe 79d9 943e e92c 0fbc 7cc5 a33d
00000350: 745c 03bf eaf7 933d 9629 813d 55f4 b5be
00000360: 6952 013e 3952 80bd b06d 973e 4209 ddbc
00000370: 3922 eb3d ba9f c0be a360 393e 2a97 10bf
00000380: 48db 523e 57c2 773e 3a40 3c3e dd13 0b3e
00000390: 345b b6be 15c5 003f d08c 2b3f 4ae4 f23e
000003a0: 34ba 8e3e 1b00 9f3e 1cf1 4dbe a854 afbe
000003b0: 8aef 90be 3a51 7c3d 00a6 373e aea7 dd3d
000003c0: 5e08 aebe 8c4e 71bd 2673 6ebd 5309 ee3e
000003d0: 7c88 a4be bf53 ea3e 3f8c 4f3e 69fa 82be
000003e0: bbb2 4abd 60b7 d8be 5b2e 363e fbad 80be
000003f0: 637d 653c bafb e03e ed5a adbd 825f 203e
-0.12022399 -0.15490685 -0.30501625 -0.4591582 0.20678997 -0.31563097 0.21068776 -0.30357715
-0.41832018 0.24410747 0.47708812 0.44241902 -0.019756472 -0.120910875 0.43253827 0.55898005
-0.08259122 0.4097788 -0.22265644 -0.4583775 0.42166618 -0.011857444 -0.34921226 -0.030343171
-0.36543927 0.3486883 -0.33389497 -0.49530146 0.39716172 -0.3614208 -0.34946078 -0.15253314
-0.4077551 0.3192379 0.2659184 -0.31580678 -0.3438606 0.18364567 -0.4681785 -0.5673898
-0.575501 -0.21521443 -0.12354978 -0.54623187 0.17703848 0.44202426 0.01743719 -0.241428
0.3064278 -0.06998754 -0.30621102 0.46274453 -0.38446054 0.076689444 -0.60912126 -0.2244725
0.27576154 0.46973246 -0.68530464 -0.45572108 0.37874168 0.39347714 -0.21635337 -0.4290831
0.0031651298 0.5008728 -0.3492606 0.2382905 0.18807495 -0.07017113 0.5005551 0.031769857
0.25062537 0.18206923 0.13265009 0.1058071 -0.15993239 -0.13559756 -0.33143935 -0.24393247
0.17381543 -0.35752353 -0.1416407 -0.23237433 0.42863816 0.47454464 0.014793271 0.3412937
0.2820737 0.3398016 -0.20662372 -0.100522056 0.0047037294 0.38315296 -0.5155338 0.02814423
0.16938725 -0.21556315 0.15157005 0.39286792 0.06256341 0.3466212 -0.42387122 -0.47703394
-0.35839543 -0.027919138 -0.07126331 -0.45785707 -0.2762473 0.1251988 0.15009756 0.38438284
0.029642459 -0.022655217 0.6819368 0.4205176 -0.16747573 -0.22509453 0.31428194 0.17654727
0.19101709 -0.18916509 -0.6347359 -0.5862055 0.43822852 -0.26997408 0.5652199 0.10212629
-0.14254276 0.3868129 0.2349072 -0.30268383 0.35500038 -0.47035506 0.030941674 -0.15443614
-0.3384783 -0.4220619 -0.3411912 -0.4011099 0.43655 0.2413348 -0.2241693 0.21586296
0.18331847 0.29921424 0.3201871 -0.30190733 0.28100485 -0.35509226 -0.07540111 -0.09678989
0.24919605 -0.31173694 -0.040830556 0.0046625743 -0.29026973 -0.3329638 0.11742723 -0.14053957
-0.0038446628 0.40073073 0.17022105 -0.05101225 0.06935855 -0.33837622 -0.044967256 0.31001836
0.004702643 0.41449267 -0.09454669 -0.463733 -0.31488627 0.20497368 0.20928298 -0.2936879
0.0916457 -0.2172887 -0.29341227 -0.05691401 -0.24883862 0.053893115 0.3977247 0.23027702
-0.19222125 0.17901771 0.34602007 -0.27054128 -0.4150437 -0.14936282 0.2990793 -0.29183078
0.16382726 0.14175798 0.3698887 0.3646178 -0.30234826 -0.052611213 -0.45920768 0.23736386
-0.0148264775 0.37930802 0.34749603 0.40281504 0.27376544 -0.07483867 0.5562516 0.40277535
-0.21658151 0.29072168 -0.008738735 0.079966515 -0.5131295 0.0722502 0.0630676 -0.35537973
0.12629093 -0.06265683 0.29575872 -0.026981954 0.11481137 -0.37621862 0.1810327 -0.5648066
0.20591462 0.24195229 0.18383875 0.13581796 -0.35616457 0.50300723 0.6701174 0.47439796
0.27876437 0.31054768 -0.20111507 -0.34244275 -0.28307754 0.0616009 0.17934418 0.10822998
-0.3399076 -0.0589128 -0.058215283 0.4649149 -0.3213538 0.45767018 0.20268343 -0.25581673
-0.049486857 -0.42327404 0.1779112 -0.25132737 0.014006945 0.43942052 -0.08464608 0.15661433

input_layer.bias f4 [128]
00000000: efe6 d0be 6028 70bd 5347 8f3e 6716 3ebe
00000010: 4bc8 9a3e 4ef5 a03e 3e35 8ebe 0f34 be3e
00000020: 8a1b 8ebe 6cf8 cfbe 39f1 b0be ba68 633e
00000030: 726e c83c c83f cb3e 5f69 53be 615a cc3e
00000040: e63e 58be 015c 863e 9e7c 0abf 50c5 c53e
00000050: cc19 fdbc 5cdc 6cbe a455 853e 7c66 913d
00000060: 6c42 a03e 96af 92be 55b7 9ebe 912a 743e
00000070: 4dea 993c bfec e7bd d3e9 fb3e 3128 493c
00000080: 1fb6 f83c 066b 02bf da65 863e ec0b c43e
00000090: 577e 513d aeb6 87bd b5fa fbbe 18c0 8a3e
000000a0: 895a a63e af8d 07be 3740 adbd f157 82be
000000b0: 1d9f ce3e dfd5 b13e 3369 ef3e 69ec afbd
000000c0: 12ac 25be 80f7 f9be 4d9a 1a3b 62b0 f73d
000000d0: 9895 c73e 4f0c a6bd c8b6 38be 5e33 8a3e
000000e0: 4dae a4bd fa6d bf3e af8d 863e d29c 4e3e
000000f0: 18f3 683e 79ee 3a3e 77a6 2d3e bc79 3cbe
00000100: c9a5 2cbe 775b e7be 34c8 a33e ff4f eabe
00000110: d9e6 86bd 923f 963e 975c d5be 6c7a a13d
00000120: bc58 ecbc 68aa 27be 5c20 00bf c260 8d3e
00000130: 7937 01bf 4268 dd3e 4ffd 97be dab9 e53e
00000140: 2f02 813d f8c8 d53e cd0a 923e 18f9 803e
00000150: 3730 91be 69cb ec3e c393 bb3e 2c9e d43e
00000160: 8727 793e 0778 8dbe 2cb5 adbd 03fa 01bf
00000170: be6f 983e 6af4 fe3e 0c3d 573d 59f5 cd3e
00000180: 244d f03c 6022 ae3e 50ca e43e 9104 883e
00000190: 2cb9 8abe bc56 9b3e 3f2f 7abe 2a19 7bbe
000001a0: bedf 9bbe 337a 2fbe 6570 8c3e 4d67 debe
000001b0: 7559 cd3d 2a1e 6e3e 0e1b 623e db78 f5be
000001c0: e80c 873e e1a3 0c3d 745e 94be 6970 f33e
000001d0: 0662 d4be 7b82 df3e c95b 76be 4d99 fb3b
000001e0: 2b7d 6c3e 662b f83e 109e 613e ba63 d53e
000001f0: 6633 e33e d972 1f3d b4ed 98be 5e15 f9be
-0.40801188 -0.058632255 0.27984104 -0.18563233 0.30230936 0.31437153 -0.27774996 0.37149093
-0.27755386 -0.40619218 -0.34559038 0.22207919 0.024466727 0.396971 -0.20645665 0.39912704
-0.21117744 0.26242068 -0.540964 0.386271 -0.03089609 -0.23130935 0.260419 0.070996255
0.31300676 -0.28649586 -0.30999246 0.23844363 0.018788481 -0.113244526 0.4920183 0.012277649
0.03036028 -0.50944555 0.26249582 0.38290346 0.051145878 -0.0662664 -0.49214712 0.2709968
0.32490948 -0.13237642 -0.08459514 -0.2545772 0.4035577 0.34733483 0.46759948 -0.085900135
-0.16178921 -0.4882164 0.0023590506 0.12094189 0.38981318 -0.081078164 -0.18038476 0.26992315
-0.08041058 0.37388593 0.2627997 0.2017701 0.22748983 0.18255033 0.16958033 -0.18405813
-0.16860117 -0.4518697 0.3198868 -0.45764157 -0.065869994 0.29345375 -0.41672203 0.07884678
-0.028850906 -0.16373599 -0.50049376 0.27612883 -0.5047527 0.43243605 -0.29685447 0.44868356
0.062992446 0.4175489 0.28523865 0.25190043 -0.28357098 0.4624894 0.3663617 0.41526926
0.24331485 -0.27630636 -0.084818214 -0.5077211 0.29772753 0.49795848 0.052548453 0.40226248
0.029333659 0.340106 0.44685602 0.26565984 -0.270944 0.3033961 -0.24432085 -0.24521318
-0.3044414 -0.17136459 0.274295 -0.43438187 0.10026828 0.23253694 0.22080633 -0.47943768
0.26377034 0.034335975 -0.28978312 0.475467 -0.41481036 0.43654236 -0.24058451 0.007678187
0.23094623 0.4847061 0.22032952 0.41677648 0.4437515 0.038927887 -0.29868853 -0.48649114

hidden_layers.0.weight f4 [64, 128]
00000000: 7ced d4bd c47c 9bbd be22 b53b c1a4 ebbc
00000010: 2934 403d a400 f2bb b2d9 42bd a62e a3bd
00000020: b6aa 993c d18a ebbc 31f1 54bd 927d 6c3d
00000030: a63c 233d 9d09 84bd 97e9 06bd d6fb db3d
00000040: 5cbe 80bc 6e80 003e 1128 703d 4b6b e3bc
00000050: d6fb adbd b033 8d3d a6eb b4bb 3987 9fbc
00000060: 2e4c 4c3d 49c5 0fbd 13c4 25be 2de3 303d
00000070: 107a ca3d 1053 4ebd c075 5cbd ff0f 8c3d
00000080: 315e 8d3d 605d ac3d 9066 9cbc feb2 1cbc
00000090: f62c 56ba e899 8a3d 4f51 db3d 2a16 763d
000000a0: 89ba 0cbd bcbd 14bd 59c8 c93d e92b debd
000000b0: 6de4 2c3c 545c c03d 97fc ddbc 6428 5abd
000000c0: d360 b03d 7dee 7d3c 42f7 aa3d f988 d13d
000000d0: e66f d53c ed8d 61bc faf1 a73d c40c fabc
000000e0: fd92 973c 6656 6f3d e598 8bbd 8ba1 a23d
000000f0: 0ef6 6a3d a18a 0d3d f712 8ebb 1ccc bb3d
00000100: c3dc 023d 2241 6cbd cd31 ebbd d21d e8bd
00000110: 1921 bbbc 0a83 013d 27c9 bfbd 59ce 2bbe
00000120: db63 693c fc63 18bd ba13 5fbd db12 0bbc
00000130: 4e25 f43d deac cf3d 395d 68bd 3afb 46bc
00000140: 9f42 cd38 51dd 9c3d 8f2e ffbc 7669 79bd
00000150: bc38 0fbd 3121 c1bd 5e61 cfbb f4bb 493d
00000160: f60c ad3b ca65 f23c 6465 ce3c 448a ae3d
00000170: ec45 57bc ebd9 b03d 0ab1 003e 6899 9c3d
00000180: 44bf bdbd aca7 9dbd 303a 74bb d443 6ebc
00000190: 9eda 183c 2389 3abc 05cb 173e b81a c4bd
000001a0: fa18 ff3c ead9 0dbd dcf1 cf3d 61c5 b0ba
000001b0: 0bcc 62bc 6710 95bd f5d8 5c3d 14a2 a93d
000001c0: 4ef7 d13d 1bb1 2fbd 3d7f f9bc 1055 ecbb
000001d0: 7549 eb3c acb8 a43c 0636 0f3c a478 f63d
000001e0: 77a8 f83d 2406 843b 170e 4dbd b8c0 41bc
000001f0: 57e6 5ebd a383 67bd 4bd7 c93b 4b9e 033a
00000200: 789c 533d 195e a7bb 1710 9c3d 5ce9 36bd
00000210: 3dd8 02bd b648 92bd 3a77 063d 4dc1 98bb
00000220: 365f 91bd 1623 aabd 0b7a b73b f3e1 873d
00000230: 6c6f 39bd 57b0 94bd 979b 6f3d dcc6 30bd
00000240: 6039 a03d 17bd 9e3d 559f b7bc 554f 143d
00000250: b995 2bbc 9046 c93c 57b1 31bd d3ce 68bd
00000260: 9b53 af3d 3d6b a43d 555b 8a3d aaeb 81bd
00000270: 2045 3a3c 7896 bd3c 396a 8abd d194 9fbd
00000280: 4246 d9bc 82d6 3f3b c4e8 a93c 891a 87bd
00000290: 1adf c0bc d4e4 ab3d 36f0 04bd 6a8d 57bd
000002a0: b2a3 a8bd 387d 0139 27b4 cbbc 8630 b5ba
000002b0: 7e9e 883c 330f a6bd 8e16 8bbd b13b 58bd
000002c0: 0fa4 61bd ddac 8abd d80a 363d 7d64 f8bc
000002d0: f3ec 00bd 16ab af3c 5b76 8b3d 0b87 9dbd
000002e0: 426a 0e3d dbdd 81bd b1e0 7fbd 5f7c 46bd
000002f0: eaf6 db3b 01e8 a83a e7f7 78bd cd20 803d
00000300: c887 8fbd 892e 33bd 2f3b 9bbd b901 303d
00000310: 8a94 62bd c74a 2cbd 575a 163d 701a 66bd
00000320: 10f0 90bc 8d71 8c3d 3820 77bc b564 613b
00000330: 3d00 d3bb f6ca 9cbd 9719 ab3d 6982 3f3d
00000340: 3c66 19bc 875a 413d 763a f13c 6943 823d
00000350: fd5b 0b3d a34d 6f3d 4f38 9ebc 71f0 403d
00000360: c525 ca3c d786 9f3d 3e8f 40bd 029e 6f3d
00000370: 7fc3 bb3c 770a 913d ba5b 1a3c 24e5 3f3d
00000380: 7eee ecbc 6da6 efbc 165f 533c 5236 fcbb
00000390: de63 44bc 5218 a4bd 4966 8a3d 6a26 4ebd
000003a0: 3544 43bd 6e53 59bd 286d e9bb 2ea2 33bd
000003b0: 114a 8bbd bbf1 8abd 4f58 803c 8ef3 933d
000003c0: a115 843d 0a5a 78bd fd5c 3e3d a9d4 fabc
000003d0: 7ea2 693c 71f4 17bd 0ad6 86bd 40c8 e63c
000003e0: 2459 333c 55a9 193d 1d78 bbbd fa9c d4bb
000003f0: 31db a43d 189d 24bd 929c e53c df6c 873c
-0.10396859 -0.075921565 0.005527823 -0.028765084 0.046924744 -0.0073853303 -0.04757089 -0.07967882
0.01875816 -0.028752716 -0.05198783 0.05773694 0.03985276 -0.06447146 -0.032937612 0.10741393
-0.01571577 0.12548992 0.05863196 -0.027761122 -0.084952995 0.06894624 -0.0055212555 -0.019473659
0.049877338 -0.035100255 -0.16188078 0.0431854 0.09886563 -0.050372183 -0.053823233 0.068389885
0.06902731 0.08416247 -0.019091874 -0.009564159 -0.0008170152 0.067676365 0.10708868 0.06007973
-0.03435758 -0.036313757 0.098526664 -0.10848219 0.010552508 0.0939261 -0.027097983 -0.053261176
0.08612218 0.015498755 0.08347942 0.102312036 0.026054334 -0.013766748 0.0820045 -0.030523665
0.018502707 0.058432005 -0.06816272 0.07940968 0.057363562 0.034556035 -0.004335757 0.0916979
0.031948816 -0.057679303 -0.11484108 -0.11333813 -0.02284293 0.03161911 -0.09364539 -0.16777934
0.014244999 -0.037204728 -0.054462172 -0.008488382 0.11921178 0.10140394 -0.05672953 -0.012144858
9.787571e-05 0.076594 -0.03115013 -0.06089159 -0.034966215 -0.09430159 -0.0063287457 0.04925151
0.005281086 0.029589552 0.025194831 0.08522466 -0.013139229 0.086353146 0.12567535 0.076464474
-0.09264997 -0.076979965 -0.0037266128 -0.014542539 0.009329466 -0.011385235 0.1482354 -0.09575409
0.03113984 -0.034631647 0.10153553 -0.0013486558 -0.013842593 -0.07278519 0.053917844 0.08282867
0.10252248 -0.04289351 -0.03045618 -0.0072122887 0.02872155 0.02010759 0.008740908 0.12034729
0.12141507 0.0040290523 -0.050062265 -0.011825733 -0.054418888 -0.056522023 0.006159698 0.0005020841
0.051662892 -0.005107653 0.076202564 -0.044656143 -0.031944502 -0.07142775 0.032828547 -0.004661715
-0.07098238 -0.08307473 0.0055992655 0.06634893 -0.045272276 -0.07260197 0.05849799 -0.043158397
0.078234434 0.0775091 -0.022414843 0.03620847 -0.010472708 0.02456978 -0.043382015 -0.056837868
0.08560868 0.080282666 0.067557015 -0.063437775 0.01136902 0.023143038 -0.067585416 -0.07792056
-0.02652276 0.0029272144 0.020740874 -0.06596858 -0.023543883 0.08393255 -0.032455646 -0.052625097
-0.082343474 0.00012349046 -0.024866177 -0.0013823665 0.016677137 -0.08108368 -0.06791411 -0.0527913
-0.0550881 -0.06771252 0.044443935 -0.030321354 -0.031475972 0.021443885 0.06809684 -0.07691773
0.034769304 -0.06341144 -0.06247014 -0.048458453 0.006712784 0.0012886525 -0.060783293 0.06256256
-0.0700832 -0.04374555 -0.07579648 0.042970393 -0.05531744 -0.0420635 0.03670725 -0.056177557
-0.017692596 0.068575956 -0.015083365 0.0034392301 -0.0064392374 -0.07655899 0.0835449 0.04675523
-0.0093627535 0.047205474 0.029446822 0.06360514 0.034023274 0.05842365 -0.01931396 0.047104303
0.024676213 0.077893905 -0.047011606 0.058500297 0.022920368 0.07082074 0.009421283 0.046849385
-0.028922316 -0.029254163 0.012901088 -0.007696905 -0.011986701 -0.08012451 0.067577906 -0.050329603
-0.04767247 -0.05305808 -0.007123608 -0.04385584 -0.068012364 -0.06784388 0.015667109 0.07224189
0.06449438 -0.060632743 0.0464754 -0.030618982 0.014259933 -0.037098352 -0.065837935 0.028171659
0.010946546 0.037515003 -0.09153769 -0.0064884396 0.0804962 -0.04018888 0.02802876 0.016531406

hidden_layers.0.bias f4 [64]
00000000: 340e 28bd d7cd 243d 41a2 70bd b0e2 863c
00000010: 5147 23bd a1e7 5b3d fa1b 073d 27e0 b03c
00000020: d392 9cbd d9ee d43c 5b9a 963d 4629 ca3b
00000030: 262b 48bd a1e6 263d 6469 15bc 40ac 94bd
00000040: a3cb 41bc f4cd 77bd 41c4 cb3d 48c5 76bb
00000050: ebbf a53c 498a 4b3b 1802 70bd 9354 bbbd
00000060: 8772 b83d 805b 643d dc61 d23c cf28 243a
00000070: e3fc 54bd 6ae0 a8bd 6e90 783d 2a8e 39bd
00000080: eca4 7b3d 0897 a93b 64eb af3d b458 b93d
00000090: 2e23 bbbd d0ce 9d3d a659 23bd 435d 24bd
000000a0: 2c15 08bd 8bdc ba3d 7bfb dfbc d0db 923c
000000b0: 79ae 933d 3e3a 96bc 3057 0d3c 03d4 89bd
000000c0: 8412 28bd 3eaa 51bb 7555 9b3b 7a01 103c
000000d0: 9596 613d 8791 cdbc 1911 983d f5bf a7bd
000000e0: cd94 873b ae1c a13d 7a97 efbc e1ec a4bd
000000f0: f3ef 253d 32f3 a83d a52d 3abd e51b 12bd
-0.04102917 0.040235367 -0.058748487 0.016465515 -0.039862934 0.053687695 0.032985665 0.02159126
-0.07645192 0.025992798 0.0735366 0.006169471 -0.048869275 0.04074729 -0.009119365 -0.072594166
-0.011828336 -0.060499147 0.09949542 -0.003765421 0.020233115 0.0031057766 -0.058595747 -0.091469906
0.09006219 0.055751324 0.025681429 0.00062621845 -0.051998984 -0.082459286 0.060684614 -0.045301594
0.06143658 0.005175475 0.08589819 0.09050122 -0.09137569 0.07705462 -0.039880417 -0.040128004
-0.033223316 0.091240965 -0.027341595 0.01792708 0.072110124 -0.018338319 0.008626744 -0.06729891
-0.041033283 -0.0031992341 0.004740412 0.008789415 0.055075247 -0.025093807 0.07425136 -0.0819091
0.0041376115 0.07866798 -0.029247034 -0.080529936 0.040512037 0.08249511 -0.045453686 -0.035671134

output_layer.weight f4 [2, 64]
00000000: f484 1abc 5fd4 bbbc 5280 2a3d 7935 02bd
00000010: b417 2e3e 2db7 563d b8c0 92bc aa9b 21be
00000020: b61f c4bb 4b70 2e3e 8138 59bc 0df1 cebd
00000030: 1e70 8d3c ae5a e03c b5e8 243e a43b 773d
00000040: d5c4 93bd 6eed 0e3d fb68 42be 14ef d4bd
00000050: 5727 b93d d636 98bc e9c4 8c3d bb76 973d
00000060: 7092 3abe 2775 303e 3d40 14bb 08f9 d9bd
00000070: 7aa9 50be 02fc 853d eea4 723d 032c fdbd
00000080: 8130 fc3d 666f e03d 6681 62bd b787 08be
00000090: 7ef7 e43d 4d98 853c 0e6d 413e 20d2 bd3d
000000a0: fbc4 f73d 0142 4a3c efac bfbd 7980 03be
000000b0: a32f 37be 53fc bb3d 611a 03bd c833 09bd
000000c0: 6aa7 1b3e 1692 033e ae2a b5bd a249 173e
000000d0: df4f 20bd acad 1bbc afcb 44be d8ff 9e3d
000000e0: a41d d73d 2045 b93d b164 f13d 21a2 123e
000000f0: 1a58 ce3d 175a 0f3e dd56 a0bd e4fc 363b
00000100: da36 cd3d e21e a03d d5ee cb3c c3fb e1bd
00000110: e203 4ebe de3a 55bd 7388 9d3d 3b05 133e
00000120: d4ee 41bd 63dd 3ebb 4596 7fbd 72a4 d53d
00000130: 9ddd 9d3c 79b1 c6bd 0215 f7bd b881 29bd
00000140: 8d35 40bd b901 823d e7a4 013e 93fd 40bc
00000150: ab82 3abd f6ee 9abd 71da cbbd b5ee be3d
00000160: 2579 d43d 6e7a 15be 9276 18be 8a46 493b
00000170: a886 123e 80f4 f23a 27f7 31be a2ea 1c3e
00000180: 4026 4b3c 133f 1f3c d3cb 303e 9d13 3d3e
00000190: 7ce6 e13d bce4 353e feff 2ebe 6855 a7bd
000001a0: b4c7 d3bd 2654 f6bd 3540 d03d ba82 423e
000001b0: 9f9f 9c3c 1b56 f6bc 451a 87bc d578 93bb
000001c0: 6314 1dbe 3e13 66bc 4223 ca3d 6ca1 77bd
000001d0: ce01 1fbe 6bc2 363e 5ac5 c0bc 51cd dfbc
000001e0: f946 6cbd f6aa 82bd 4b02 fe3d fc6d a0bd
000001f0: 22e7 0ebc 6495 d9bb 3f06 f13d 0c4f 77bd
-0.009431113 -0.022928415 0.041626282 -0.031789277 0.1700123 0.052420784 -0.017914161 -0.15782037
-0.0059852256 0.17035024 -0.0132581005 -0.101045705 0.017265376 0.02738699 0.16104396 0.060359612
-0.07215277 0.0348944 -0.1898536 -0.10397163 0.090407066 -0.018580835 0.06873495 0.07395693
-0.18219924 0.1723219 -0.0022621297 -0.10643202 -0.2037715 0.06542207 0.05923932 -0.1236191
0.12313939 0.109587476 -0.055299185 -0.13333021 0.11180018 0.016307974 0.18889257 0.09268594
0.12098118 0.012344838 -0.09359156 -0.12841977 -0.17889266 0.091789864 -0.03200758 -0.033496648
0.15200582 0.12848696 -0.08846031 0.14774182 -0.03913867 -0.009501856 -0.19218324 0.07763642
0.105037004 0.09046388 0.117867835 0.1431966 0.10075398 0.1399921 -0.07829068 0.002792173
0.10020228 0.078183904 0.024894157 -0.11034348 -0.20118669 -0.052058093 0.07692041 0.14357464
-0.047346905 -0.0029123656 -0.062399168 0.10431756 0.019270713 -0.09701819 -0.12064554 -0.041383475
-0.04692607 0.06347985 0.12660562 -0.011779207 -0.04553477 -0.075651094 -0.09953774 0.093228735
0.10374669 -0.14597484 -0.14888981 0.003071221 0.1430918 0.0018536001 -0.17379437 0.1532388
0.012399256 0.009719628 0.17265253 0.18464513 0.110302895 0.17763036 -0.17089841 -0.08170587
-0.10340825 -0.12027769 0.101684965 0.1899518 0.019119082 -0.030070355 -0.016492018 -0.0045004883
-0.15339808 -0.014042674 0.09870006 -0.06045668 -0.15528032 0.17847602 -0.023531605 -0.027319582
-0.057684872 -0.063802645 0.12402781 -0.07833478 -0.008722099 -0.006640123 0.117687695 -0.06037812

output_layer.bias f4 [2]
00000000: 0fbc 2fbd a750 7f3d
-0.042903956 0.062332775
