torch_prj/PG/models/pg_net.pth (torch, 128638 bytes, 6 tensors)

input_layer.weight f4 [128, 180]
00000000: d688 d93c ffe7 71bd 02d7 a0bc ab6c dabc
00000010: 22e1 5abd 6941 6c3d b4c2 9bbd 5390 f43c
00000020: dc35 52bd 59da e23c a0ba b2bc d186 2bbd
00000030: 0529 a4bc bc11 703d dba4 83bd dfff 5ebd
00000040: 5126 8d3b 0481 bcbc ed41 14bd b614 5a3c
00000050: 367b 163d 4456 923c 4019 903c b968 ec3c
00000060: dd22 5cbd 3653 603c ded4 12bd 8dad 8e3d
00000070: 27e3 073c 6285 b63b a455 623d 0aea 773d
00000080: 2d88 80bd 4b43 93bd 251a 29bd a99d fdbb
00000090: 03b2 5d3c bdb1 cbbc 06f8 36bd a131 a63c
000000a0: 6cc7 b7bc da07 a0bd 8e92 8cbd c0e9 45bd
000000b0: 504a cc3c 13e1 733d 624a b0bc dd1f e4ba
000000c0: d497 7fbd 98b7 84bd 4a17 68bd 4a51 473d
000000d0: 2e42 78bd fb4e 88bd 0654 f93c 0458 1abc
000000e0: 690a 243d 5a1c 183d 9165 49bd e6d5 06bd
000000f0: 0ca7 9bbd fed4 743d 2b2b 80bc d98f f4bb
00000100: 7c84 d53c a558 f4bb 0f55 ebbc 0600 f1bc
00000110: c639 84bd 5928 18bd 8054 92b9 8596 253d
00000120: 036f 71bc 40ef 93bb edb5 873c 1071 a83c
00000130: 3f85 ffbc 10bd febc 310d 86bd aca3 27bd
00000140: bbae 023c 0e76 90bd 1fc9 dd3c b10e 5e3d
00000150: 188a ce38 6437 00bd b6dd c13c 92e6 d13c
00000160: b0ab 9bbd 6e81 15bc 643d 03bc b991 5a3d
00000170: 1fa5 5a3b a50d 7c3d 4e81 e8bc 3682 42bd
00000180: 69c2 8bbd 9c25 77bd 777f 323c 3841 6d3c
00000190: 4590 f039 e2d2 7ebd eea7 2f3d c5a4 873c
000001a0: 9d5c 903b bf03 5a3c ce10 cabc 7a82 c6bc
000001b0: 55b3 41bd d3d8 56bd da61 f0bb 3c70 9b3c
000001c0: d803 7fbd bd69 9cbd c8bc 48bc 2dc9 55bd
000001d0: 761b 54bc 707d f4bc 160a 6d3c 1d1d 17bd
000001e0: 9830 66bd 6e6f 70bc d97a 19bd 30b0 44bd
000001f0: 4acd 30bd 8c90 d63c 8b38 dc3b 67e0 393d
00000200: a84f 52bd 2d2f 96bd 1e22 1dbd 18df 8abc
00000210: e175 3f3c a0de 7dbd 2cf3 303d 893e 0c3c
00000220: 09bb 0abb 4034 633d 85fb 843d b05a 603c
00000230: 44c1 83bd a6e9 f0bc a3cd 053b e073 32bc
00000240: c7e0 633d 9d1b efbc b51c 6d3d 6fbd ffbc
00000250: 8500 9abd d58c 743c 51cd 3f3d f38f be3c
00000260: 06f2 29bd 3575 8bbd 7cf2 213c d2f4 d13c
00000270: ad56 913c f45e 6fbd 4bb6 1e3d 8e0e 283d
00000280: 9c8e a4bc 7f36 44bd c973 70bd 93ea eabc
00000290: 9866 ea3c 6c9d e0bc f4e7 023d e850 453c
000002a0: 479b 0a3c 0cd9 d3bc 9b00 22bd 1e3f 893c
000002b0: f1f2 4abd 06f4 4a3d 9f0c e13c 712a ee3b
000002c0: d092 273d 5e41 80bd cd6d 8b3c e5e8 12bd
000002d0: 8d95 4ebd 2d79 04bc a22a 93bc a768 7fbd
000002e0: 46f7 79bc d105 6a3c 8520 423d b959 b63c
000002f0: c6d9 5a3d 6693 bd3b c932 923b 189a fdbc
00000300: a4f9 74bd 114a a5bc 0a77 673d 6cd4 923d
00000310: bf1f 65bd 55be 0bbd d070 7e3c 15e5 583d
00000320: e82f 4ebd 8e6d 8abd 5b51 6f3d 43a8 8cbd
00000330: bb63 6fbc 638e ddbb 9195 053c 882b 5b3d
00000340: c4e9 a43c 0329 17bd 42d2 23bd 26e3 b8bc
00000350: 858e b03c 5863 443d 98bf 89bd 9bc6 95bd
00000360: cdc4 0dbc 176e 8bbd c25b 2ebc 971c a6bc
00000370: fa4a c33b 8a67 d0bb af85 bdbc e4ed 81bd
00000380: c250 363d c006 2abd af96 8abd 4bf4 283d
00000390: c2e0 f5bc 0b39 6bbd e811 95bd 6f92 5f3d
000003a0: 2efc 8abd debf 883d 93a1 6ebd 1625 91bd
000003b0: 72d7 743d e16c 843b e4ce f73b 25a9 1b3d
000003c0: d681 e13b f76d 493b f21b 433b d2f0 663c
000003d0: 1780 51bd 2cf6 b1bc 0232 8dbd 4499 2ebd
000003e0: 4876 663c 8d16 4cbd 9155 fe3c 00b1 deba
000003f0: 9853 563b 226d 703d 7cf9 963c a6c1 753d
0.026554506 -0.05905914 -0.019633774 -0.026663145 -0.05343736 0.057679567 -0.07605496 0.029853975
-0.051320896 0.027692007 -0.021817505 -0.041876618 -0.02003909 0.058610663 -0.06427928 -0.054443236
0.004307546 -0.023010738 -0.036195684 0.013310602 0.036738597 0.0178634 0.017590165 0.02885853
-0.053744186 0.013691714 -0.035847537 0.06966696 0.008293903 0.0055700997 0.055257455 0.06052593
-0.062759735 -0.071905695 -0.0412847 -0.007739742 0.013531211 -0.024865026 -0.044670127 0.020287337
-0.022433959 -0.078139976 -0.068638906 -0.048318624 0.024937779 0.05954082 -0.021519843 -0.0017404516
-0.062400654 -0.0648033 -0.056662835 0.048661508 -0.06060999 -0.06655689 0.030435573 -0.009420399
0.04004899 0.037136413 -0.049169127 -0.032918833 -0.07600221 0.059773438 -0.015645584 -0.007463437
0.02606415 -0.0074568563 -0.028727083 -0.029418956 -0.06456332 -0.037147854 -0.00027910247 0.04042675
-0.01473594 -0.004514605 0.016566241 0.020561725 -0.031191466 -0.031096011 -0.06545485 -0.040927574
0.007976229 -0.07053767 0.027073441 0.05421323 9.8485674e-05 -0.031302825 0.02366529 0.02562264
-0.07601106 -0.009125097 -0.008010242 0.05336163 0.003336258 0.06153645 -0.02838197 -0.04748746
-0.0682419 -0.0603386 0.010894648 0.014480881 0.00045883856 -0.062212832 0.04288476 0.01655806
0.0044055716 0.013306557 -0.024666216 -0.024232138 -0.047290165 -0.052452873 -0.0073358836 0.018974416
-0.062259525 -0.076373555 -0.01225204 -0.05219381 -0.012946 -0.02984497 0.014467737 -0.036893
-0.056198686 -0.014675004 -0.037470672 -0.048019588 -0.04316453 0.026191972 0.0067206076 0.045380022
-0.051345497 -0.07333217 -0.038362615 -0.016952083 0.011685819 -0.06197989 0.043200657 0.008559831
-0.002116861 0.05546975 0.06493286 0.013693497 -0.06433347 -0.029408287 0.0020416758 -0.010891885
0.055634286 -0.029187972 0.057888705 -0.031218259 -0.0751963 0.014926155 0.046826664 0.023262
-0.041490577 -0.06809465 0.009884473 0.025629435 0.017741526 -0.058440164 0.038748067 0.041029505
-0.020087533 -0.047903534 -0.05870417 -0.028676307 0.028613374 -0.027418815 0.03195949 0.012043215
0.008459873 -0.025860332 -0.03955136 0.01675373 -0.049548093 0.049549125 0.027471839 0.007268243
0.040911496 -0.06262468 0.01702013 -0.035866637 -0.05043559 -0.008085531 -0.017964665 -0.062355664
-0.0152567085 0.014283613 0.047394294 0.02225958 0.05343034 0.0057853935 0.0044616205 -0.030957267
-0.05980839 -0.02017692 0.05651001 0.071694225 -0.05593848 -0.03411706 0.015529826 0.052952845
-0.050338656 -0.06759177 0.058427196 -0.06868031 -0.01461118 -0.0067613586 0.008153335 0.05350831
0.020131 -0.036904346 -0.03999544 -0.02256925 0.021552334 0.047946304 -0.06725997 -0.073132716
-0.008652878 -0.06808107 -0.010641994 -0.020277305 0.0059598656 -0.006359999 -0.023135034 -0.06344202
0.04451061 -0.041510344 -0.06767022 0.0412486 -0.0300144 -0.057427447 -0.07278806 0.05458301
-0.06786381 0.06677221 -0.058259558 -0.07087152 0.059775777 0.0040412997 0.007562505 0.038003106
0.0068819327 0.003073571 0.0029771295 0.014095502 -0.051147547 -0.02172383 -0.06894304 -0.042626634
0.014066286 -0.049826194 0.03104666 -0.0016990006 0.0032703634 0.058697827 0.01842951 0.05999913

input_layer.bias f4 [128]
00000000: f4ce 1f3d dd0c 76bd 1b25 1b3d a434 b63c
00000010: d4a8 87bd baef 803b 3d80 023d 909c 33bc
00000020: b9f6 02bd 95bf b5bd ef7a d43c 07c3 84bc
00000030: cd12 4ebd 4b8b b33d 2de7 8b3d a5c2 b23d
00000040: 942a c23c 9ece ce3c 4225 93bd 7584 98bd
00000050: 78d0 8f3d 8217 9bbc e0a4 8ebd fff3 c5bc
00000060: ece6 40bd c96d 843c cf3c 0c3d 31d3 293d
00000070: 691e 863c 82f6 dbbc 1986 16bd 9ad4 b3bc
00000080: db5e 5bbd 5fda 81bd a476 223d 505b b2bd
00000090: 6c97 b3bd 14f6 b63c 5d0e 963d fd5b 11bd
000000a0: 638c 7abd eb9d a7bc bd25 0ebd b923 623d
000000b0: 12b9 99bd 8067 4c3d b7d7 283d fd82 e73c
000000c0: 4ead c73c cf1d 063d e7d9 8dbd ed64 bbbc
000000d0: f70a 703d 5d4e 9ebd 830f b93d 7dcd 60bd
000000e0: fc14 213d dcd5 a3bc 8535 1e3d e723 59bd
000000f0: 6f64 853c 9ba3 91bd 8d4a 6f3d 84d1 2abd
00000100: 2458 5fbd 4c85 b0bd 08d5 cdbb f141 3cbd
00000110: bc54 3bbd a5f1 57bc d04b 2b3d 79e6 4139
00000120: 5bec a13c fbf0 243d d581 34bd 3981 39bd
00000130: 1b6e b43b 531f 963b 0823 01bd 1953 ef3d
00000140: 33a4 a73c 72a3 473d 5be5 eebc 8f58 b5bd
00000150: 28bd d2bb 2ba3 ca3c b824 bcbc fea9 a2bc
00000160: d6de 4f3d 7897 bdbc 6496 a5bd 87e4 853d
00000170: f2b4 333c ad43 af3b cf84 38bd 4ede 6bbc
00000180: c706 ff3c 9278 5c3d b1a7 ac3c 49c9 e2bc
00000190: 7c56 483c a4f4 5c3c 6174 2d3d d71b 32bd
000001a0: 29cb c83c 601f 483d e65a 8dbc d478 97bc
000001b0: 2e22 d4bb d377 053d 624a bdbc 0c28 853d
000001c0: 25db 7ebd 922c 4abd faff f83c e59a a3bd
000001d0: 5795 47bd 524b a2bc 4c98 94bb 8260 b23c
000001e0: 252b 20bd 52e8 c3bc 7d1b 163d b112 3abd
000001f0: 265d 5e3d 9264 41bd 0337 6f3d 8f98 10bd
0.039015725 -0.06007086 0.037877183 0.022241898 -0.06623998 0.0039348276 0.03186058 -0.01096262
-0.031973574 -0.08874432 0.025937526 -0.016206278 -0.0503109 0.087668024 0.06831203 0.08728532
0.023701943 0.025245007 -0.07184841 -0.07447139 0.07022184 -0.018932108 -0.06965041 -0.024164198
-0.047095224 0.01616563 0.03423768 0.041461173 0.016371923 -0.026850943 -0.03674898 -0.021951962
-0.053557258 -0.06340479 0.039663926 -0.08708823 -0.08769116 0.022334136 0.07326958 -0.035488117
-0.06116904 -0.020461043 -0.03470396 0.05520985 -0.075060025 0.049903393 0.041221347 0.028260702
0.02437463 0.03274327 -0.06926327 -0.022875274 0.058604207 -0.0772979 0.09036162 -0.05488347
0.039326653 -0.019999437 0.03862526 -0.053012755 0.016283242 -0.071112834 0.058420707 -0.041703716
-0.054527417 -0.08619174 -0.006281499 -0.045961324 -0.045735106 -0.013180171 0.041820347 0.00018491772
0.019766023 0.04026888 -0.04406913 -0.045289252 0.0055062897 0.004581371 -0.03152755 0.116857715
0.020464038 0.048739858 -0.0291621 -0.08854782 -0.0064312406 0.024736008 -0.022966728 -0.01985645
0.050749622 -0.023143515 -0.08085325 0.06537729 0.010968434 0.0053486438 -0.04504853 -0.014396263
0.031131161 0.053825922 0.021076055 -0.02768387 0.012227651 0.013486061 0.042347316 -0.04348358
0.024510937 0.048858047 -0.017255258 -0.018490233 -0.006473801 0.032584976 -0.023106758 0.06501779
-0.06222071 -0.04935891 0.030395497 -0.07988528 -0.048726406 -0.019811306 -0.0045347568 0.021774534
-0.039103646 -0.02391449 0.03664731 -0.04542798 0.054288052 -0.047215052 0.058402073 -0.03530174

hidden_layers.0.weight f4 [64, 128]
00000000: a481 873d e3f0 4dbd 2e51 67bd b9a4 d13b
00000010: 9a46 a4bd d12e 59bd 7c90 803d 6c31 0d3d
00000020: 7793 86bc d55a 03bd 346a ed3c 689c 85bd
00000030: e062 97bd d74b 95bc 2c11 193c 37b8 5ebd
00000040: 5158 62bd 3fa3 123d 2a14 ccbd 0825 013d
00000050: b029 993d 82c3 193d 02a4 3abd 4acd 90bd
00000060: acf7 a5bc 9454 803c 092b 843d 3443 95bd
00000070: 9786 a6bd bb11 963c 0faa 293d fda2 ac3d
00000080: 524c 98bd 06d2 d83b 80f9 443d 6189 4e3d
00000090: 9268 04bd 6483 50bd 1972 4c3d 4e2b b73d
000000a0: b587 77b8 d977 1dbd 622e b4bd cd0d fbbc
000000b0: 33cb 01bd 1429 523d a1ef 9cbd eebc 313d
000000c0: af44 72bd 2ac2 04bc df78 a6bd ad08 70bc
000000d0: 164a a3bd 5218 a8bc f7bf fd3c ab79 703c
000000e0: 0265 5e3d 569a 64bb 9830 223b 02cc 83bd
000000f0: 0534 b1bd a8bd 46bd a15d 863d b90d 5ebd
00000100: 7afe 503d 688a 91bd 8873 703d de89 e2bc
00000110: f09b 1ebd e3f3 283d 035c 943c d030 6fbd
00000120: 68db 4a3d 714b e03b 7cad 79bd 59d9 a83c
00000130: 2baa d4bd 950d fe3a 75ad 883d d024 313b
00000140: 9d6a 4bbd 1e7c 6c3d 4b32 1fbd 70c8 993c
00000150: 7536 34bd 1b31 adbd 3f9f 3e3d ba2d 813d
00000160: 4a91 263d 7a84 503c 9483 0c3d 8084 77ba
00000170: 406c 68bd 0ec5 f53c 6a9c 473b c9d0 fdbc
00000180: 637d fb3a a373 623d 18c6 96bd 99f6 063d
00000190: 0d61 87bd 417a 613d fd86 27bd 69d0 50bd
000001a0: b20c 8cbc e220 79bd c251 f4bc 080a 0e3d
000001b0: 0292 1b3d ee84 c4bd 4b9e febc c37d 2ebd
000001c0: ca1d 1b3d 53f2 893d f14c 8bbd eb80 e2bb
000001d0: 3ad9 08bd 7b9b d2bc bfef 793d 4a96 40bd
000001e0: 2162 45bd 1b77 d0bc 5141 bf3c 352e 01bd
000001f0: b332 ce3c 5358 593c 9096 b9bd 7101 483d
00000200: 7585 623d b9d4 f13c e200 ad3d 4482 1abb
00000210: f3fa 47bd bf24 89bd cfad e63c 336d 843d
00000220: 7575 053d 26bd f2bc 78de b13c cbad 953d
00000230: 26be e13c 8dd9 9c3d f71c a3bd 9cf6 8abc
00000240: 9e98 b2bc ebba ad3c 7432 673d af01 6c3d
00000250: a79c 18bb 9e03 9d3d d25a 17bd 9c98 88bd
00000260: 2936 3ebd 5c7f 1a3d d78a 273d 23b4 67bc
00000270: 942f b33c ab01 91bd c667 71bd 1851 e9bc
00000280: 4b5e 2abc 6c20 34bc 6ca3 16bd 899b 873d
00000290: f2a8 1c3d 68ff f73c 2997 7c3d bb6d a2bd
000002a0: fe84 373d 37be 3cbd 3a58 943d eba2 943d
000002b0: c429 06bd 1916 633d 7df3 2a3d 1be8 573d
000002c0: 94bf c23c 4d15 a6bc bcd0 983d fa20 a0bd
000002d0: 1dfc 293d 6e2a fa3c 6b06 903d b9e2 bd3b
000002e0: 7c81 273b 626f 92bb 0403 0cbc 10cc a13d
000002f0: a6b9 8d3d c0cc 14bd 8df6 5a3d a20a 1bbc
00000300: 92af ce3b 27aa 6abd 440d babd f40a a6bd
00000310: 687c be3c 9446 a3bd e7d5 6a3d c1a5 b63c
00000320: eedf 13bd 54f4 3ebd b4da ebba 3c5b e43c
00000330: 5d79 cdbc 9bbc e53c 0035 4d3d f351 e83d
00000340: 9781 d93c 675c 49bd c788 a5bd 806a 043d
00000350: 3cd7 9bbc 2508 b23c 2703 9cb8 ad45 3d3d
00000360: 15f8 093c bc00 933d 4ce6 a6bd c72f f73b
00000370: 8a79 a8bd d2c8 7bb9 5012 d53c 1966 403b
00000380: a69a aabd 3047 bdbd 461f 9f3d 8e4a 543c
00000390: 191c f53b 6d13 9cbd ba25 9e3d dd6d 1bbd
000003a0: 493c 2c3d 1186 a6bd d643 263d 32f6 403d
000003b0: e5b5 83bd 5c16 8a3d 0358 3d3d 82d5 ba3c
000003c0: 9572 8fbb c7b0 f83b 30c4 9f3d 0764 03bc
000003d0: 821b 86bd 0d77 2e3c a9ec 2b3c 9db2 aebd
000003e0: 3bf3 a3bc 805a 7c3d 4f91 70bd 8af7 a13d
000003f0: a022 07bc de26 e6bc b13c 7bbd 6380 1b3c
0.06616524 -0.050278556 -0.056473903 0.0063978103 -0.08021279 -0.053023163 0.06277558 0.03447096
-0.016427739 -0.032069046 0.028981306 -0.06523973 -0.07391906 -0.01822464 0.009342473 -0.0543749
-0.055260006 0.035800215 -0.099647835 0.031529456 0.074786544 0.037539966 -0.045566566 -0.07070406
-0.0202597 0.01566533 0.06453521 -0.072882086 -0.0813114 0.018319001 0.041421946 0.08429525
-0.07436432 0.0066168336 0.048089504 0.050423983 -0.03232629 -0.050906554 0.0499135 0.089438066
-5.9015776e-05 -0.038444374 -0.08797909 -0.03064623 -0.031687927 0.051308706 -0.07662893 0.043393068
-0.059147533 -0.008102933 -0.08128523 -0.014650506 -0.07973115 -0.02051941 0.030975325 0.014677445
0.054295547 -0.003488203 0.0024748202 -0.06435396 -0.086525 -0.048520714 0.06560827 -0.054212306
0.051023938 -0.07106477 0.05870393 -0.02765363 -0.038722932 0.041248213 0.01811028 -0.05839616
0.04952565 0.006844931 -0.060956463 0.020611452 -0.103840195 0.001938271 0.06673709 0.0027029999
-0.04966222 0.057735555 -0.038866322 0.018772334 -0.043997247 -0.08456632 0.046538588 0.0630755
0.040665902 0.012726897 0.03430517 -0.0009442046 -0.05674386 0.03000119 0.003045822 -0.030983346
0.0019187148 0.05528606 -0.07362002 0.032950018 -0.06610308 0.05504823 -0.04090022 -0.050980005
-0.017095897 -0.060822375 -0.029824141 0.034677535 0.03798104 -0.09595667 -0.03108134 -0.042600404
0.037870206 0.06735673 -0.06801785 -0.006912341 -0.03341029 -0.025708904 0.061019655 -0.047018327
-0.048189286 -0.025447419 0.023346575 -0.031538207 0.02517066 0.013265687 -0.09061921 0.0488295
0.055303056 0.02952038 0.08447434 -0.002357618 -0.04882331 -0.06696462 0.02815905 0.064661406
0.03258272 -0.029631209 0.021712527 0.07308539 0.02755649 0.07658682 -0.07964509 -0.016963296
-0.02180129 0.021207293 0.0564446 0.057618793 -0.0023286731 0.076667055 -0.036951847 -0.06669733
-0.04643837 0.037719116 0.040903892 -0.014142069 0.021873273 -0.07080396 -0.058936857 -0.028481051
-0.010398458 -0.010994058 -0.036776945 0.06621463 0.038247056 0.030273154 0.061667595 -0.07931086
0.044804566 -0.04607984 0.072433904 0.07257637 -0.032754675 0.055440996 0.041736115 0.052711587
0.023772992 -0.020273829 0.07461688 -0.0781879 0.0415002 0.03053781 0.07032474 0.0057948497
0.0025559356 -0.0044688443 -0.008545641 0.0790025 0.06920175 -0.036328077 0.053457785 -0.009462984
0.0063075507 -0.057291176 -0.090845615 -0.08107558 0.02325268 -0.07972446 0.0573329 0.022295834
-0.036102228 -0.04661973 -0.0017994256 0.027875535 -0.025082285 0.028044036 0.050099373 0.113437556
0.026551051 -0.049160387 -0.08082729 0.03232813 -0.01902353 0.0217324 -7.439247e-05 0.046209026
0.008420964 0.071778744 -0.081493944 0.0075435373 -0.08226307 -0.00024012037 0.026009709 0.002935773
-0.08330278 -0.092420936 0.07769637 0.012957228 0.007480156 -0.07620893 0.077220395 -0.03794657
0.04204968 -0.0813104 0.040592037 0.04710979 -0.06431178 0.06742546 0.046226513 0.022806887
-0.004377673 0.007589433 0.07801092 -0.008019454 -0.065482154 0.010648501 0.010493436 -0.085301615
-0.020013442 0.061609745 -0.058732327 0.079085425 -0.008248001 -0.028094705 -0.061337177 0.009491059

hidden_layers.0.bias f4 [64]
00000000: ff60 84bc 593c 4dbd 9932 8cbd 1e37 a0bd
00000010: 0fc4 c43d 5bbb 2abd 891c aa3b 952e fdbc
00000020: 072a 93bd 6187 23bc 0f48 9ebd 2e75 04bd
00000030: aab2 9abd c44e 543d bbae 94bd 0385 d6bb
00000040: 7315 85bd f594 ecbc c560 673d 8088 6f3d
00000050: a9e2 47bd 1d92 83bd 0707 39bd 4ce4 063d
00000060: 11c6 bf3d 26ad 943d 4d0b 133c 3ad5 97bd
00000070: 099f e83c 2034 dcbc 0f2d 08bc 2a05 c8bc
00000080: 2ed0 bdbc 6414 4a3d 9d27 303c 3223 b03c
00000090: f06a a5bc 3262 c0bc c440 4fbd 5532 2f3d
000000a0: 700b f43c 3181 a0bd 62fc 8d3c 18fe 4b3d
000000b0: 5657 093d a103 5f3d 067c 63bc 7e40 b2bd
000000c0: 7dc3 b9bd 3503 3abd eee6 9ebd 955c 8c3d
000000d0: 206f 29bd 7459 83bc 90ae b5bd 60be d13c
000000e0: d024 aebd 7abd 52bd 4eb6 d13c d0c4 063c
000000f0: 4907 3b3d 178c c3bd fb4e 92bd 4fbb a8bd
-0.016159533 -0.05010638 -0.06845588 -0.07823013 0.09607708 -0.041682582 0.00519139 -0.030906001
-0.071857505 -0.009981007 -0.07728588 -0.032338314 -0.07553609 0.05183293 -0.0725989 -0.006546618
-0.06498232 -0.028879622 0.05648877 0.058479786 -0.048800144 -0.06424353 -0.045172717 0.032932565
0.0936395 0.07259588 0.008974862 -0.074137166 0.028396146 -0.026880324 -0.008311524 -0.024416525
-0.023170557 0.049335852 0.010751632 0.021501157 -0.020192593 -0.023484323 -0.050598875 0.04277261
0.02979061 -0.07837141 0.01733226 0.04980287 0.033530556 0.05444682 -0.01388455 -0.08703707
-0.090704896 -0.045413215 -0.0775889 0.06853596 -0.041365743 -0.016033866 -0.08871186 0.025603473
-0.08503115 -0.05145023 0.025599625 0.008225635 0.045661245 -0.095482044 -0.071439706 -0.08238851

output_layer.weight f4 [2, 64]
00000000: 435a 4a3d 5188 68bd 23e1 87bd efcd 15bd
00000010: 7d89 f83b 07ac 82bc 00d9 f53d 5760 ccbd
00000020: 818d 91bd 974c e53d fdd1 903d 2c98 4dbd
00000030: 83d7 24bd ab52 263e f3cb 67bd 24f8 5dbd
00000040: bc4c 67bd 77e3 e43d dc15 bebd 8fe5 febc
00000050: 46e7 ed3d e158 943d b9db 273d bbd8 e6bb
00000060: 6636 1cbc a3ad 103e 8c53 aabd eb04 16bd
00000070: db61 fdbd c943 2ebc 245e e63d f65c 86bb
00000080: cde5 123d fff6 c03d 050e 0bbd e408 e43d
00000090: 3e90 b7bc e6fa c83c bb6e 6a3c 05ea f2bc
000000a0: bd70 e6b9 a159 9a3d ce81 db3d 5bb4 d4bc
000000b0: 8dfd 84bd 28ee 0a3e 3742 1b3e cb30 f0bc
000000c0: fa94 b33c c092 00be 84d1 aabd 4656 e53d
000000d0: 6010 bd3d ca0c f0bd c10f 4cbb c57d 81bd
000000e0: d399 993d be72 0a3b 6131 c7bc 173e 1c3d
000000f0: 2717 263d 0870 723d 2776 8c3d d484 e73b
00000100: 2ce9 d23d 0062 893d d3d5 cdbd af38 d4bd
00000110: 721c 223e adf0 9b3d f87d bbbc d11a 96bd
00000120: bffa 1abd a5af 7ebd c01f 293d 45eb e73c
00000130: b11f 603d bb76 9abd 6a64 80bd de18 89bc
00000140: 17cd 453d 4790 fdbc 2fb1 933b 1af4 eebc
00000150: dd5c 8fbd 2269 813d 1663 823d 110d ae3d
00000160: 61f3 303d 5330 58bd 6ef5 613d e405 29be
00000170: afb0 8dbc 92d9 2b3c c611 c0bc 3b46 11be
00000180: e65e 7fbb a59e 9cb9 49e1 24bd 6419 2c3d
00000190: a235 b6bd 0dd3 0abe baf7 28be c86e bb3d
000001a0: b5e5 aebd 5b3f 20be 6e86 fc3c 3a74 943d
000001b0: 5a4f 003e d8fa 803d 1640 693d b617 8a3d
000001c0: 4f70 b1bd 5e5e 27bd cba1 313d 9c89 afbd
000001d0: 46f9 96bd a6a9 193d 6122 cb3d b407 023e
000001e0: 1b57 8a3d b532 a43d fea1 283e e990 063d
000001f0: eccc ef3d ae67 f63c 4233 d1bc f589 3a3d
0.049402487 -0.056770626 -0.06634738 -0.036573347 0.0075847493 -0.01595117 0.1200428 -0.09979313
-0.07107068 0.11196249 0.07071302 -0.05019395 -0.04024459 0.16242473 -0.056590986 -0.054191723
-0.056469664 0.11176198 -0.09281513 -0.031115321 0.116163775 0.07243515 0.04098103 -0.0070448793
-0.009534454 0.14128737 -0.083167166 -0.036625784 -0.1237218 -0.010636278 0.11248425 -0.0041004373
0.035863686 0.09422111 -0.033948917 0.11134508 -0.022407647 0.0245337 0.014308627 -0.029652605
-0.00043953015 0.075366266 0.10718118 -0.025964906 -0.064936735 0.13567412 0.15161978 -0.029320141
0.021921623 -0.1255598 -0.08340743 0.11198096 0.09231639 -0.11721189 -0.003113732 -0.06322817
0.07500043 0.002112552 -0.024315538 0.03814515 0.040549424 0.059188873 0.06858473 0.007065395
0.1029838 0.06708145 -0.10050549 -0.10362374 0.15831164 0.07614265 -0.022887215 -0.073293336
-0.037836786 -0.062179226 0.041290045 0.028310427 0.054717723 -0.07542177 -0.062691525 -0.01673549
0.048291292 -0.030952586 0.004507206 -0.029169131 -0.07000134 0.063188806 0.063665554 0.08498586
0.043200854 -0.05278046 0.0551657 -0.16506153 -0.017296163 0.0104888845 -0.023445975 -0.14186947
-0.0038966476 -0.00029872838 -0.04025391 0.042016402 -0.088969484 -0.13557072 -0.1650075 0.09151989
-0.08539907 -0.15649168 0.03082582 0.07248731 0.1253027 0.06297845 0.056945883 0.06742804
-0.08663999 -0.04086148 0.04336719 -0.08571169 -0.07371764 0.037515305 0.09918667 0.12698251
0.06754895 0.08017484 0.16468045 0.03285304 0.117090076 0.030078735 -0.025537137 0.045541722

output_layer.bias f4 [2]
00000000: 8fef edbd 2578 13bd
-0.11617958 -0.03600325
